PPO-continuous/2333pc/final/AC.pth (torch, 103755 bytes, 8 tensors)

log_std f4 [1, 12]
000000 f0 1c af 42 2a 38 af 42 89 52 af 42 98 48 af 42
       87.55652 87.609695 87.6612 87.641785
000010 0a 21 af 42 d6 3c af 42 3d 1f af 42 3d 30 af 42
       87.56453 87.61882 87.56101 87.594215
000020 e8 6c af 42 07 33 af 42 fe 41 af 42 7f fc ae 42
       87.71271 87.59966 87.62889 87.49316

share_net.0.weight f4 [64, 315]
000000 6c 68 01 3e 47 12 c3 bd 66 d0 18 bd 01 62 de bd
       0.1263749 -0.095249705 -0.03730812 -0.108585365
000010 c9 dd 0c be eb 76 3c bd 0c d2 97 be fb 02 1b be
       -0.1375648 -0.046011847 -0.2965244 -0.15137856
000020 56 ca 08 3c 96 b7 ef 3d 16 1f 03 3e f5 b0 bb 3c
       0.008349022 0.11704938 0.12804827 0.022911528
000030 ca 26 b4 be e2 70 47 be 80 80 d1 3b 9f fd 2c 3d
       -0.35185844 -0.19476655 0.006393492 0.04223406
000040 fe 66 5e be 00 58 a9 3d b0 60 f6 bd 66 45 92 bd
       -0.21718976 0.08268738 -0.120301604 -0.07142143
000050 cd 7d f2 3e a2 c2 00 3e 2c aa 01 3e 4e 76 d4 bd
       0.47361603 0.12574247 0.12662572 -0.10374127
000060 f9 18 cc bd 93 a3 b9 bd 70 e6 16 bd b8 01 d0 3d
       -0.09965701 -0.090644024 -0.036840856 0.10156578
000070 6e 3b 74 be 4a 36 89 be ac 54 da 3d 11 82 00 3c
       -0.23850796 -0.26799232 0.10660681 0.00784351
000080 8e ae 19 be a3 41 20 3e fd dc c5 3e 1c f1 3f 3c
       -0.15007994 0.15650038 0.38645163 0.0117152
000090 a1 68 4a bd a8 f2 89 be 4e 8d b3 3d 2d a3 2c 3e
       -0.04941619 -0.26942945 0.08767186 0.16859122
0000a0 c3 4c f6 bd af 85 40 3e ff c1 15 be 19 a3 c4 3d
       -0.1202636 0.18800996 -0.14624785 0.09601421
0000b0 e2 3f 30 be 7c ef 05 3e 95 13 40 be ae d6 af be
       -0.1721187 0.13079637 -0.1875747 -0.34343475
0000c0 e6 ac e1 bd 2e 12 8a bd bb 6d 35 3c ef 82 f9 bd
       -0.11019306 -0.06741749 0.011073525 -0.12183177
0000d0 f3 4c e0 bd 5f dc c2 bd 73 13 fb ba f1 f4 ca 3d
       -0.10952177 -0.09514689 -0.0019155577 0.0991
0000e0 8d 6f 49 be 23 69 02 be ff 6e 1e be ee 7c 26 3e
       -0.1967146 -0.12735419 -0.15472029 0.16258594
0000f0 44 91 11 bd f7 6e 56 bd b9 31 de bd 95 d0 7b be
       -0.035538927 -0.052351918 -0.108493276 -0.24591286
000100 4f be ae bd ec 9f 81 3c 35 cd 6e bd 82 6c cf 3d
       -0.08532392 0.015823327 -0.05830117 0.10128118
000110 51 56 5f bd 99 cd 2b bd 8d 9e 3b bd a3 1d d2 bd
       -0.054525677 -0.04194412 -0.045805503 -0.10259559
000120 fe 2b ac bd 02 8c e7 bd 1b f9 1e be 42 25 b9 3d
       -0.08406828 -0.11306001 -0.15524714 0.090403095
000130 b9 eb cf 3d bf ac 85 be d1 63 73 3d dd 2a 31 3c
       0.101523824 -0.26108357 0.059421364 0.010813442
000140 2b 05 44 3e 86 01 19 be 1a 35 0b be 88 8e 44 be
       0.19142596 -0.14941987 -0.13594475 -0.19194996
000150 f7 3d 25 bc 76 aa 00 3d 82 75 f7 bd 9d 44 ba be
       -0.010085574 0.031412564 -0.1208296 -0.36380473
000160 d9 ee 1f 3e 74 05 c0 3d 10 be 0e bd 21 e1 83 be
       0.15618457 0.0937604 -0.034849226 -0.25757697
000170 e5 c6 13 be 80 da b3 bc 24 fe b6 be d6 f2 92 bd
       -0.14431341 -0.021954775 -0.3574077 -0.071752235
000180 61 ba 8b 3d 20 a8 16 be 25 8e 96 3d cb 38 71 3d
       0.06822658 -0.14712572 0.07351331 0.058892053
000190 ef f2 0c 3e 87 44 3f be 7d 02 75 be 59 dc a1 bc
       0.13764547 -0.18678485 -0.2392673 -0.01975839
0001a0 15 53 32 be cf cc 87 be 0f 1d 97 bd 63 b7 96 be
       -0.17414506 -0.26523444 -0.07378589 -0.29436788
0001b0 c8 54 9a bd 85 97 8d 3d 2b c5 f1 3c e1 91 3b bd
       -0.07535702 0.06913666 0.029512962 -0.045793418
0001c0 28 f0 81 3c 3f 19 1d be cd b5 fa bc fc f8 04 3d
       0.015861586 -0.15341662 -0.030604267 0.032464013
0001d0 a6 2d ac be f4 f9 3a 3d 58 31 3e 3e d2 87 a9 bc
       -0.33628577 0.04564853 0.1857351 -0.020694647
0001e0 6f 69 17 be 0a bc 5d be d5 4f 46 be 2b eb 09 3d
       -0.14786313 -0.21653762 -0.19366391 0.03367154
0001f0 9c 9e c2 bd 2b 79 39 bd ba 5a ce bd fa 3f a2 be
       -0.095029086 -0.04528157 -0.100758985 -0.31689435
000200 22 db 85 be b3 5c f9 3c f6 f3 22 3d 30 68 d3 3c
       -0.26143748 0.03043971 0.03978344 0.025806516
000210 89 5d 20 3d 47 c1 49 bd 6c 69 05 be 27 19 d3 bb
       0.039151702 -0.04925659 -0.13028497 -0.0064422074
000220 0f 1b 19 bd 77 4a bf bd eb 4c 7d 3d f9 e3 1b be
       -0.03737932 -0.09340375 0.061840933 -0.15223683
000230 da 57 f1 bd b9 7d 00 be f4 44 bb bd dc b5 f9 3c
       -0.117843345 -0.1254796 -0.09144011 0.030482225
000240 a3 11 9c 3d b4 ef 3b 3e 59 94 c0 3e 04 a7 18 be
       0.076205514 0.18353158 0.3761318 -0.14907461
000250 4b 62 8d be 80 77 bb bd 20 fd 85 bd fa 7c 99 be
       -0.27614054 -0.09153652 -0.065424204 -0.29978162
000260 6f 37 9c be 9b cc e3 bc 77 74 7c be 63 99 0e 3e
       -0.30511042 -0.027807524 -0.24653803 0.139257
000270 27 62 3f be e5 82 46 3e 5f 1f ba bd 9e 6e 4d bd
       -0.18689786 0.1938587 -0.09088015 -0.05015432
000280 6b 62 37 bd 2a ff 18 3e 74 59 e8 3d b6 4a 3c bd
       -0.044771593 0.14941087 0.11345187 -0.045969687
000290 12 e7 17 bc ca fa ba be 06 6b f6 bd f2 a8 c5 bd
       -0.0092714 -0.36519462 -0.12032132 -0.096513644
0002a0 21 09 7d 3d 7e 7a cf bd c6 a8 b5 3d 1a d5 8e be
       0.061776284 -0.101307854 0.088700816 -0.2789696
0002b0 dc e6 50 3b 58 a7 a8 bd eb e1 31 3e 6e d2 00 be
       0.0031875884 -0.08235043 0.17371337 -0.12580273
0002c0 bd 38 b1 be ea 7f c4 3d 7c 10 10 be 0c 73 87 bd
       -0.346136 0.0959471 -0.14068788 -0.0661374
0002d0 04 f5 1d be 67 4e 40 3e d6 f4 20 be f4 7d bf 3d
       -0.15425497 0.18779908 -0.15718397 0.093501955
0002e0 f6 70 31 3e 60 4b 24 bd 8d 52 e3 bd 3e 0f 94 bc
       0.17328247 -0.040110946 -0.1109973 -0.018073674
0002f0 69 5f 07 bd f7 cb 4e bd bf 11 aa bd ef 73 2d 3e
       -0.033049975 -0.050487485 -0.08304166 0.16938756
000300 3f 3a 13 bd 1c 26 76 3d 58 0d 1d be 69 82 86 bd
       -0.03594422 0.060094938 -0.15337121 -0.065678425
000310 1f d6 4f bd 7e d3 44 3d 3f f6 1c be ac 96 95 be
       -0.05074131 0.048053257 -0.1532831 -0.29216516
000320 78 28 55 bc 9f f1 2f 3e 5c c2 94 3d 17 79 9d 3c
       -0.013010137 0.17182015 0.072636336 0.01922278
000330 ce 2c 12 bd 83 41 42 bc d7 6f 02 3d c5 43 83 be
       -0.03568726 -0.0118564395 0.03184494 -0.25637642
000340 38 22 51 3e 32 61 89 bd 73 81 9c 3d 91 2b 3c 3d
       0.2042321 -0.06707992 0.07641878 0.045939986
000350 c0 8e 79 bd 05 45 ab 3d 6c 16 c7 3c 30 1f c0 3d
       -0.060927153 0.08362774 0.024302684 0.093809485
000360 b3 ec aa 3e af dd 57 3c 73 cb 5f be 4a 33 ce bd
       0.33383712 0.013175412 -0.21854953 -0.10068376
000370 9a 86 1f 3c 6e d9 3d be 79 ce c0 3b fb a1 5a bc
       0.009736681 -0.18539974 0.0058839885 -0.013344283
000380 a2 3e 88 3d 57 56 5a 3c 1c d5 83 be 54 57 60 bd
       0.06652571 0.013326249 -0.25748527 -0.054770783
000390 3f 03 c7 bd 81 75 1e 3e 81 d9 1b bd 5c 3b d7 be
       -0.09717416 0.15474512 -0.038049225 -0.42037475
0003a0 45 7b 19 3e 32 7b 2e 3e 24 78 12 be be c1 63 be
       0.1498843 0.17039183 -0.14303643 -0.22241876
0003b0 66 d7 e3 be f3 3d 56 3d a8 fc ef bd 9b 63 d8 3d
       -0.44500273 0.052305173 -0.11718112 0.10565873
0003c0 4e e3 96 bd fa 09 39 3d 74 3f 01 be f2 00 77 be
       -0.07367574 0.04517553 -0.12621862 -0.24121454
0003d0 bd 06 96 be 37 16 69 be 24 95 e3 bd 87 b2 ed bd
       -0.29302016 -0.2276238 -0.11112431 -0.11606317
0003e0 8f 47 81 bc b4 15 83 bd c1 a2 f2 3b 6b 0a 1c be
       -0.015781192 -0.06400624 0.0074046557 -0.15238349
0003f0 78 5b 3f bd 3f e7 76 3c 2d 59 98 bd 9e ad 69 be
       -0.04671809 0.015069782 -0.07438884 -0.22820136

share_net.0.bias f4 [64]
000000 4f 20 d7 bc 2b 5a 40 3e f8 ab 47 3e 0d ef 2e 3d
       -0.026260523 0.18784396 0.19499195 0.042708445
000010 01 f4 ba be 39 6f 13 bf a7 a8 d6 3e 49 60 d8 bd
       -0.36514285 -0.5759159 0.41925547 -0.1056524
000020 17 df d6 3e d3 ad 30 bf d4 e5 ff 3e ed 89 b9 3e
       0.4196708 -0.69015235 0.49980032 0.36238042
000030 0a 9b e9 3e f5 d5 d1 3d 65 4d d7 3e 09 4b e6 3d
       0.45626098 0.10245887 0.42051235 0.112447806
000040 f8 88 80 be 72 65 43 3c b3 a7 c6 be c2 1e ed be
       -0.251045 0.011926042 -0.3879982 -0.4631253
000050 0f 58 33 3f a0 eb ce be df 50 d3 3c 64 ba f2 bd
       0.7005624 -0.40414143 0.025795398 -0.118519574
000060 fe 20 d5 be c9 32 ae bd f0 64 20 bf e2 8c 34 3f
       -0.41626734 -0.0850578 -0.6265402 0.7052747
000070 2e f8 13 3f 66 9a 3c 3f fa 74 89 3e 2d 8a ae 3e
       0.5780057 0.73673093 0.2684706 0.34089795
000080 85 26 87 bd 5e 56 bf 3e 9a 0a 79 3e 4a 02 2d be
       -0.06599144 0.3737058 0.2432045 -0.16895404
000090 ab 50 88 bd 51 f0 2c 3e 8a e9 a1 bd 3e 94 90 be
       -0.06656011 0.16888548 -0.07905872 -0.282381
0000a0 77 3d 49 bd 9b ef 40 3e 77 2d d8 3d 61 a0 8e 3e
       -0.049130883 0.18841402 0.10555547 0.27856734
0000b0 0d ef 28 be 50 17 0b 3f 04 05 86 be 0a 5e 2f bd
       -0.1649744 0.5433245 -0.26175702 -0.042814292
0000c0 c5 d6 99 be 3a 75 3a bd 0c a7 b5 3e 41 2c 04 3f
       -0.3004667 -0.045521952 0.3547901 0.51630026
0000d0 45 4c 7c 3d 34 ec b3 3d 63 19 47 3e ba 25 18 3f
       0.061596174 0.087852865 0.19443278 0.59432566
0000e0 68 e2 f1 3e fb 72 6a be 3f 34 80 bd b7 07 7f 3e
       0.47243047 -0.22895424 -0.06259965 0.24905287
0000f0 7d 1e 90 be fe 91 c4 3e 16 d1 bb 3e 2d 78 5b 3d
       -0.2814826 0.38392633 0.36682957 0.053581405

share_net.2.weight f4 [64, 64]
000000 58 df 39 3e f2 c4 58 be 17 97 03 bf ea 83 2e bf
       0.18151605 -0.21168879 -0.5140242 -0.68170035
000010 37 05 bb be 70 d8 21 3c 6f ca 8b 3e 58 7e ad 3e
       -0.36527416 0.009878263 0.27302882 0.33885455
000020 54 9d 43 3e bb 7a ed 3e 57 20 de bd 7f 4d 31 3e
       0.19102985 0.46382698 -0.10846012 0.17314719
000030 8d c9 41 bf 7e 74 d6 3d 35 17 50 be 36 ef 5e 3c
       -0.7569817 0.10471438 -0.20321353 0.013606837
000040 8a 81 2c 3d 90 6a b7 3e fe 57 e3 bd dc d0 54 be
       0.042115726 0.35823488 -0.111007676 -0.20782799
000050 f0 f9 a8 3e 9c bc 4c 3e ed f3 9b 3d bf ba e7 bd
       0.33003187 0.19993824 0.076148845 -0.11314916
000060 e1 fe 81 3e 7e 16 f5 be 5e dd 85 be c3 1c 08 3e
       0.2538977 -0.47868723 -0.26145452 0.13292222
000070 82 c3 4d bd 09 1e 9d be 49 a7 37 be 69 e8 93 be
       -0.05023528 -0.30686978 -0.17934908 -0.28888252
000080 f9 c5 82 be 9a d4 3a 3e 87 d9 8e 3e ef 92 c3 be
       -0.25541666 0.18245164 0.27900335 -0.3819804
000090 f0 b7 d0 3e b4 e5 11 3e 7e 1d 03 bf d3 4c 9b bd
       0.40765333 0.14247781 -0.51216877 -0.075830124
0000a0 35 da 62 bd ce 15 2a be 00 67 63 bf 35 35 f6 be
       -0.05538388 -0.1660988 -0.8882904 -0.4808747
0000b0 65 61 e7 be 8c 53 93 bd 16 35 00 3e 6e d9 a9 be
       -0.45191494 -0.0719367 0.1252025 -0.33173698
0000c0 09 ca ad bd 9d a9 f7 3d 69 4f 3f 3c 2b 46 45 3f
       -0.08485801 0.12092898 0.011676648 0.7706019
0000d0 88 ad a2 bb 07 55 f0 be 18 71 6a 3e ac 2e 49 bd
       -0.004964534 -0.4693987 0.22894704 -0.049116775
0000e0 92 7a 2f be ef c6 6f 3e c8 5e 9c bb 1a 95 fc bb
       -0.171366 0.23415731 -0.004772041 -0.007708204
0000f0 e6 c9 9f 3d 3c ff 6b bd 7c 11 f2 3d 23 92 10 3f
       0.07802181 -0.057616457 0.11819741 0.56472987
000100 3f 36 0e bf e3 fc 16 bf 86 04 b3 3d 7a cb 7a bd
       -0.5555152 -0.58979625 0.08741097 -0.061229207
000110 84 8f e6 3b 74 b0 b2 3d 16 7f f8 bc 6b 9a 87 bc
       0.0070361514 0.08725062 -0.030334037 -0.016553124
000120 ce 1f 76 bd 49 e7 74 bf 4c 83 44 3e 5a bf 97 3e
       -0.060088925 -0.95665413 0.19190711 0.29638177
000130 4a e5 31 3f 30 0f 72 bd eb 6d fc 3e 48 09 94 be
       0.6949049 -0.059096515 0.4930261 -0.2891333
000140 bf db d6 3e 36 4b 8a be 1e 1c a3 be ac 2b bc 3e
       0.41964528 -0.27010506 -0.3185739 0.3675207
000150 2a 6d 22 be 83 8e a4 3d 14 a3 aa 3e b1 2a 0d 3e
       -0.15861955 0.080349945 0.33327544 0.13785817
000160 58 fa 5a be 86 16 94 3e 64 c2 75 bd 4d 9d 93 bd
       -0.21384561 0.28923434 -0.05999984 -0.07207737
000170 26 18 53 3e cd a6 e9 3e ee 22 32 3f 2d 57 6b 3e
       0.2061468 0.4563507 0.6958455 0.22982474
000180 3b 67 9f 3d 43 9e 38 3e 74 cf 14 be a4 4c 1a 3e
       0.077833615 0.18029122 -0.14532262 0.15068299
000190 5f 91 98 3e 18 83 a1 3c 9c 17 7e 3e cb d7 33 be
       0.2979841 0.01971583 0.24813694 -0.17562787
0001a0 95 cc 52 3e db 53 62 bc 42 f8 e7 3e 0e 3a d9 3e
       0.20585854 -0.013813938 0.45306593 0.42427105
0001b0 51 0f b3 3e 93 5c c9 3e a2 f2 64 bf 41 07 8b be
       0.34972623 0.3932844 -0.8943273 -0.27153972
0001c0 bd 30 f6 bc ad 39 b9 3b e6 ab 35 3e 1f c9 22 3e
       -0.030052537 0.0056526274 0.17741355 0.15897034
0001d0 9a 77 ad 3e b2 51 72 3f f2 b3 a5 bc 58 64 c8 bd
       0.3388031 0.9465591 -0.020227406 -0.09784764
0001e0 f5 7d 0a 3f 13 85 66 be 5a b5 55 3e 2c 00 a7 3e
       0.54098445 -0.22511701 0.20869961 0.3261732
0001f0 c5 b2 3d be b8 31 c2 3d 7a dc 21 3e 94 b9 de 3d
       -0.18525226 0.09482139 0.15806761 0.1087524
000200 34 a0 86 3d 2e 7b a0 be 50 38 62 be 8b 89 d4 be
       0.06573525 -0.3134398 -0.22091794 -0.41511187
000210 2a 08 02 bf 39 59 14 3e d9 57 83 3d 75 46 e8 3e
       -0.5079371 0.1448716 0.0641324 0.45366254
000220 23 df 6d 3d ad b8 7e bd 7d 7b 1e be 37 f2 90 3d
       0.058074128 -0.06218784 -0.15476795 0.07077449
000230 aa 41 1c 3d 3a 44 4d 3f 3e 45 8c bf c4 70 0a 3f
       0.03814856 0.8018223 -1.0958631 0.54078317
000240 71 f4 cd be 4e 6f 55 3e 68 73 c3 be 66 c1 d1 be
       -0.40225556 0.2084324 -0.38173985 -0.40967864
000250 1c 89 ec 3e b3 66 3c be 1b ca 36 3f cb bd d9 b9
       0.46198356 -0.18398552 0.7140214 -0.00041530872
000260 6e 78 c5 3d 62 79 c3 be 31 58 26 3d b0 1e 9c be
       0.09642111 -0.38178545 0.04061145 -0.30492163
000270 bb f3 07 be ea 45 47 3e b8 9a 01 bf 14 01 80 be
       -0.1327657 0.19460264 -0.5062671 -0.25000823
000280 8e 44 a2 3e 39 74 82 be af a7 a4 3d 05 51 b6 bc
       0.31692928 -0.25479296 0.080397956 -0.02225543
000290 a7 2a b9 3d 40 b1 fc ba 3f e6 83 be 9e 33 c9 bd
       0.090413384 -0.0019278899 -0.257616 -0.09824298
0002a0 89 06 02 3f 0f e8 58 3e 70 ea 87 be bb f7 d6 be
       0.5079122 0.21182273 -0.2654605 -0.41985878
0002b0 58 a5 59 3e 8a e5 51 3d c6 cb 00 3e 26 00 e5 3d
       0.2125448 0.051244296 0.12577733 0.11181669
0002c0 f3 d8 84 3e 82 17 72 3e d4 c7 ea 3e 84 10 38 3e
       0.2594677 0.2364178 0.45855582 0.1797505
0002d0 d8 4f 41 be e3 2f d0 be e1 d5 59 3e aa de 63 3e
       -0.18878114 -0.40661535 0.21272995 0.22252908
0002e0 58 0b 21 bd a6 b1 d2 3c 94 89 53 be dc ed 73 bd
       -0.03931746 0.025719475 -0.2065795 -0.059553012
0002f0 07 42 47 bd 68 3a ad 3e b4 86 d2 3e ca c9 02 3f
       -0.048646953 0.33833623 0.41118395 0.51089156
000300 08 27 bd be 7c 57 8a bd c0 79 97 3e 2a 44 d5 be
       -0.3694384 -0.067549676 0.29585075 -0.41653568
000310 4f a4 f6 be cc b3 99 3e e3 37 65 3d bc a2 15 be
       -0.48172233 0.30019987 0.0559615 -0.1461286
000320 a1 b7 36 3d 9f 45 b3 be 94 f1 a3 be 60 0a bf be
       0.044608716 -0.35014054 -0.32020247 -0.37312603
000330 46 f5 41 be 7c c2 ac 3d 22 ee 18 bf 87 22 3b be
       -0.1894122 0.084355325 -0.5973836 -0.1827489
000340 7b 29 36 be d1 d2 4b be ef 2a 1b be c9 b9 dc bd
       -0.17789261 -0.19904639 -0.15153097 -0.10777623
000350 42 c8 a6 bc 6a fb 68 be 75 0e 14 3e 4b 60 8b be
       -0.020359162 -0.22752157 0.1445864 -0.27221903
000360 62 4a 13 bf 1b 50 c1 be 00 63 81 bd 6f 55 25 3f
       -0.57535374 -0.37756428 -0.06317711 0.64583486
000370 ff 9b 51 3e cc 0f dd 3d 21 ee 03 be 7d f7 06 3e
       0.20469664 0.10794029 -0.12883808 0.13180347
000380 05 8b d0 3d 3f 34 f0 bd 06 dd 5d be 2a d1 20 3d
       0.10182766 -0.11728715 -0.21666345 0.039261974
000390 1a 96 2c bd f6 30 0b 3f dc 0c 9d be 8d 77 f9 be
       -0.042135336 0.54371583 -0.30673873 -0.48724023
0003a0 8f 8a 23 bf 94 ae 34 3f 42 20 0d bf ee 8a b3 3e
       -0.638833 0.70578885 -0.55127347 0.35066932
0003b0 73 34 f6 3c 87 9a 0f bd da 4b e5 be 1c d0 8d bd
       0.030054307 -0.035059478 -0.44784433 -0.06924459
0003c0 2e 39 b6 be 5f d2 b3 be 26 73 94 3e dd 63 ce 3e
       -0.355905 -0.35121438 0.289941 0.40310565
0003d0 1e 90 7d 3d 1e d6 38 3d 33 b9 8f be bf 57 80 3c
       0.06190502 0.045126073 -0.28070983 0.01566684
0003e0 4e df 39 3e da eb 60 bf 1a e4 f6 be d4 1f f8 3e
       0.1815159 -0.8785988 -0.48220903 0.48461783
0003f0 b7 fb 21 3b ea 5d 66 3d 05 6a 8f 3e bc 2a c7 3e
       0.0024716684 0.056241907 0.28010574 0.3889979

share_net.2.bias f4 [64]
000000 7e 92 8d 3d 4b 98 21 3d 5a c1 ac 3d 1f ad d7 bd
       0.06912707 0.03945188 0.084353164 -0.10531067
000010 3e 65 2b bd 0d 2f b1 bb 2b c5 6b be 1f 3e 24 3e
       -0.0418446 -0.00540722 -0.23024432 0.16039322
000020 29 f6 ce 3b 74 10 1c bd 7b a6 ea be d2 05 ef 3d
       0.0063159657 -0.03810163 -0.4583014 0.11671032
000030 e2 ba 9e bd ee 49 7b be f8 c5 09 3e 0b 4d 05 3e
       -0.07750489 -0.2453992 0.13454425 0.13017671
000040 c7 7c 29 be 3c 8a ce 3d 4e a3 74 3e ec 82 d4 3e
       -0.16551505 0.1008496 0.23890421 0.41506135
000050 d6 9b 59 be 93 68 ab 3d ff 35 80 be 40 6e b4 bc
       -0.21250853 0.08369555 -0.25041196 -0.022025228
000060 5e 71 87 bd fb 04 81 be db b1 94 3d 0b 1e 4b be
       -0.0661342 -0.25199112 0.07260486 -0.19835679
000070 fd ab ac be ad fd 62 3e df 07 91 bc 2f bb 5b bd
       -0.33724967 0.22167082 -0.017703949 -0.05364531
000080 05 c3 95 3e 76 d4 a0 bd fb ab 89 be ee db 62 be
       0.2925035 -0.07853024 -0.26889023 -0.22154209
000090 72 ff 1d bd ae 59 24 be 53 70 ab 3e 35 fb c3 bd
       -0.03857369 -0.16049835 0.33484134 -0.09569398
0000a0 71 21 ae 3e a5 74 05 3e 92 d7 43 bd 5b 83 ed 3d
       0.3400989 0.13032778 -0.047813006 0.1159732
0000b0 7f 15 f0 3e ff 13 8c be b9 b5 cf bd df 62 49 3e
       0.468914 -0.27359006 -0.10142083 0.19666623
0000c0 89 99 4e be 00 69 90 3d 89 0d 29 3e 79 80 27 3e
       -0.20175757 0.07051277 0.1650907 0.16357602
0000d0 b3 9e 06 be 02 1c b7 bc ed a0 e0 bd d1 c6 80 3e
       -0.13146476 -0.022352222 -0.10968194 0.25151685
0000e0 9c 79 ab be f7 d8 e0 bc dc 07 2c 3d c2 30 84 3e
       -0.33491218 -0.027447207 0.041999683 0.2581845
0000f0 f1 bd ee 3e 26 5b 89 3d ef 77 9c bd 08 b7 78 3e
       0.4662929 0.06706838 -0.07640063 0.24288571

actor_mean_layer.weight f4 [12, 64]
000000 12 f0 27 be d8 ce 2f 3e 7e 42 59 3e 53 2a b4 3d
       -0.16400173 0.17168748 0.21216771 0.08797135
000010 b3 66 a0 bb 6c e5 4c 3e 4b d8 cc bd 82 68 3e be
       -0.004895055 0.20009392 -0.10002192 -0.18594554
000020 ec 8a d5 bd d4 c7 51 3d b9 e1 e1 3d 20 c6 18 be
       -0.10426888 0.05121596 0.11029381 -0.14919329
000030 de 04 9e 3d 1e 45 37 be b1 95 67 bd 69 f7 8c be
       0.07715772 -0.1789746 -0.05653924 -0.2753251
000040 f5 b4 98 3d eb 01 86 3d ed 05 1c bb 37 19 9d 3d
       0.0745639 0.065433346 -0.0023807243 0.07670825
000050 61 78 42 be 38 2a 71 be 11 06 02 bd da 3b a6 3e
       -0.18991233 -0.23551261 -0.031744067 0.32467538
000060 29 54 80 3e 8a fe 90 bd bf 11 15 be c3 3b 8e bd
       0.2506421 -0.070797995 -0.14557551 -0.069449924
000070 64 df 83 3d 88 75 96 bd e6 1b dd 3d 28 33 cb 3d
       0.06439093 -0.07346636 0.10796337 0.09921867
000080 a5 73 e2 3d 9d b5 83 3e 93 c2 5e be 59 c9 fa 3c
       0.11057214 0.25724497 -0.21753912 0.030613588
000090 b4 13 60 bd 18 85 84 3c 17 2b 82 3e c0 7f 62 bd
       -0.05470629 0.016176745 0.254235 -0.055297613
0000a0 52 b0 d8 3d e4 34 3c 3e 5b 07 ea 3d 13 7e 26 be
       0.105805054 0.18379551 0.11427184 -0.16259031
0000b0 9d 74 47 3e 5a b8 a4 3d c1 fb e5 3d 78 75 6a 3e
       0.19478078 0.08042975 0.11229659 0.22896373
0000c0 71 02 56 3c c8 ca 25 3e a3 5d 39 3e 41 cc 3c bd
       0.0130621055 0.16190636 0.18102126 -0.04609323
0000d0 b5 60 0f 3e 55 d1 3f 3e 96 d2 cb bd 3d 58 10 be
       0.14001735 0.18732198 -0.099522755 -0.1409616
0000e0 f2 8d 60 3d 3b b3 95 3d 84 3b fc bc db 9a fc bd
       0.05482287 0.07309576 -0.030790098 -0.12334224
0000f0 29 68 c3 3d 49 bf 0b 3e 91 94 20 3e d1 86 39 3e
       0.09541351 0.13647188 0.15681674 0.18117835
000100 94 e3 f2 3c d4 7a 6c bd e3 68 04 be 46 4a 7f bc
       0.029649533 -0.057734326 -0.12930636 -0.015581673
000110 02 9f 67 be 7e c4 34 be 39 cb bd 3b 86 85 81 3e
       -0.2261925 -0.17653081 0.0057920483 0.25297183
000120 fb 0d 71 3c 68 9a 69 3b 4d c2 84 bd 06 d5 2a 3e
       0.014712806 0.0035645012 -0.064823724 0.16682824
000130 80 ac a4 bd da ad 56 bc 29 1c 33 bb 39 c6 c6 3d
       -0.08040714 -0.013102973 -0.0027330017 0.09705777
000140 6b 3a d5 3d 89 3f 1c be 1f 98 a5 bd 1f 1c 7f be
       0.10411533 -0.15258612 -0.080856554 -0.24913071
000150 e5 3d 80 3e fe 10 27 3e b9 0c 34 3c 39 64 88 be
       0.25047222 0.16315076 0.010989361 -0.26638964
000160 b3 fc 60 bd ff 75 d0 bd 95 f1 70 3e 28 a6 ed 3d
       -0.054928493 -0.10178756 0.23529656 0.116039574
000170 09 e7 29 3c 30 20 08 3e 92 9a ff bc 2b ff 84 bd
       0.0103700245 0.13293529 -0.031201635 -0.06493982
000180 57 2c 64 be bf c1 50 be 20 c8 5c 3e 4b 03 d8 bb
       -0.2228254 -0.20386408 0.21560717 -0.0065921894
000190 99 38 2e bd 9e e6 cf bd 06 a3 52 be 7c ab bc 3d
       -0.042534444 -0.101514086 -0.20570001 0.092123955
0001a0 ed cc 07 bd a2 68 71 bd 3b bd e9 bd 09 7e 62 3d
       -0.033154417 -0.058937676 -0.11413046 0.055295978
0001b0 53 99 66 bd f5 33 c3 3d a5 96 ff bc 60 37 17 be
       -0.056298565 0.095313944 -0.031199763 -0.14767218
0001c0 c0 93 20 bd cb 0f 2d bb ec f6 d1 bc b3 6d 33 be
       -0.039203405 -0.0026407118 -0.025630437 -0.17522316
0001d0 c2 98 27 be 65 cd e8 bd e9 ad 16 3e 90 11 8a 3d
       -0.16366866 -0.11367301 0.14714779 0.06741631
0001e0 3c 4c 1f be 4e 30 6c be b9 ac 80 3e ac 5b 06 3e
       -0.15556425 -0.23065302 0.25131777 0.13120908
0001f0 63 17 d1 bd e5 10 31 bd 5f 1c 2b be de c1 d3 bd
       -0.10209539 -0.043229003 -0.16710041 -0.103397116
000200 6e 91 4e 3e 22 52 85 bd c6 db bc bd 2c 07 b1 bc
       0.20172665 -0.06509806 -0.09221606 -0.021609865
000210 eb 6b c8 bd f5 92 5c be 6e 8e e4 bd b3 ad 61 3e
       -0.09786209 -0.21540435 -0.11159979 0.22038917
000220 43 b7 ca 3c c2 fc 07 bd fa f5 6d bd 25 fb 7d 3e
       0.02474559 -0.033200033 -0.05809591 0.24802835
000230 42 65 cb 3c 51 90 a8 bd d1 3e 99 bb 37 fc 5e 3e
       0.024828557 -0.08230651 -0.0046766778 0.217759
000240 83 74 26 3c 42 e6 03 be 8a f7 93 bd c7 40 1f be
       0.0101596145 -0.12880805 -0.07224949 -0.15552054
000250 58 2d 48 3e ea 76 b3 3d 0a 27 95 3d 7b b7 da bd
       0.19548547 0.087629154 0.07282837 -0.10679527
000260 45 95 20 be 4a d5 df 3b 1a 47 5d 3e 4e b0 29 3e
       -0.15681942 0.006830846 0.21609154 0.16571161
000270 1e dc a2 3d 86 fb e9 bd 20 1a 7b be b0 a2 a8 bd
       0.0795214 -0.114249274 -0.24521685 -0.08234155
000280 6c ab 69 be 35 0b 3f be 38 4f cf 3d 3f 8d 8e 3d
       -0.22819299 -0.18656619 0.10122532 0.06960534
000290 6b bc 54 bd f6 40 1b 3d 13 64 42 be 56 99 e6 3d
       -0.051937502 0.03790375 -0.18983488 0.11259715
0002a0 48 69 11 be c0 ed dc bd d8 40 0f be 0a 46 5a 3e
       -0.14200318 -0.10787535 -0.1398958 0.2131578
0002b0 24 24 79 be 26 41 99 bd 36 c2 6a be c0 cf 2d be
       -0.24330193 -0.07483129 -0.22925648 -0.16973782
0002c0 a6 65 88 bd d5 ed 0f be a2 6d 9d bc 06 24 b4 bd
       -0.06660013 -0.1405557 -0.019217316 -0.087959334
0002d0 13 86 fa bd 2b 6a 4a be 3e 07 4c 3c 48 29 18 3e
       -0.12232604 -0.19767062 0.012452899 0.14859498
0002e0 8a 62 91 bd 50 20 3f be e3 ae 17 3c 39 6d 28 3e
       -0.07098873 -0.1866467 0.009258005 0.16447915
0002f0 ed fd 53 be 09 35 ae bd 8d 9a 30 be a5 bd ae bd
       -0.20702334 -0.085062094 -0.17246456 -0.085322656
000300 15 f2 2b be ba 91 42 3e fe c5 c5 3d 13 bc 79 3e
       -0.16791566 0.19000903 0.09656905 0.24388151
000310 37 06 99 bc e4 f2 53 bd 42 36 37 3e 07 86 8e bd
       -0.018679721 -0.05174531 0.17891791 -0.069591574
000320 f5 f8 9e 3d fd ec 86 be 0e c6 e6 bd 03 30 f8 bd
       0.077623285 -0.26352683 -0.11268245 -0.121185325
000330 4e e8 80 be b4 e3 68 be e7 6f ba 3e 45 83 f8 3c
       -0.25177234 -0.22743112 0.364135 0.030336032
000340 35 b9 c4 3c bc 36 03 be 45 46 4e 3e 1c 15 ff 3d
       0.024014095 -0.12813848 0.20143993 0.12455198
000350 9a 52 d2 bd 20 f4 af bc 79 e1 6c 3e 56 32 ea 3c
       -0.10269661 -0.021478713 0.23132886 0.028588455
000360 c0 8a 85 3d 69 1b e4 3d a1 cf 3d be ae 58 a4 bd
       0.06520605 0.111380406 -0.18536235 -0.08024727
000370 6e ff 22 3e 6c 2d 82 be 13 25 67 3d 6b b0 44 bd
       0.15917751 -0.2542528 0.05643184 -0.048019808
000380 5c 90 db bc 64 cf 1d bd bd 38 4f 3d 43 29 aa 3d
       -0.026802234 -0.03852786 0.05059122 0.08308651
000390 c9 4a 32 3e 27 88 42 3e ed b0 32 3e 5d 9e ad 3e
       0.17411341 0.1899725 0.17450304 0.33909884
0003a0 2d 3e 4a 3e f6 37 7b bc e1 e4 54 bd 0d 91 81 bd
       0.1975028 -0.015333166 -0.05197609 -0.06326494
0003b0 ea 46 41 3e 71 6b a3 be 01 30 e2 3d 09 66 0f 3e
       0.18874708 -0.3191791 0.11044312 0.14003767
0003c0 7e ae 1b be 5f 36 31 3d 90 ab 9f 3d 3f 84 1f 3d
       -0.15203282 0.043264743 0.07796395 0.03894448
0003d0 4e fc 64 3d e1 40 1e bd f7 c1 07 bd 17 2d 16 3e
       0.05590468 -0.038636092 -0.033143964 0.14665638
0003e0 a6 b5 23 3e 74 21 e8 3d b3 b9 95 ba c0 10 19 bd
       0.15987262 0.11334506 -0.001142314 -0.03736949
0003f0 d4 bd 82 3d 5c f2 78 3d 2c a7 a4 3d bf d7 84 3e
       0.06383863 0.060778007 0.08039698 0.2594585

actor_mean_layer.bias f4 [12]
000000 a7 dd cf 3d 85 f4 6d be 09 35 88 bc 30 91 16 bd
       0.10149699 -0.23237808 -0.016626852 -0.036759555
000010 a5 cb 7e bc 9e 92 bc bd f7 b1 c9 bd 62 6a a3 3d
       -0.015551482 -0.092076525 -0.09848397 0.07979275
000020 0f 62 72 3e 63 ad 92 bc f2 aa 3a 3e 29 af 47 be
       0.23670219 -0.017904943 0.18229273 -0.19500412

critic_layer.weight f4 [1, 64]
000000 0b e3 85 bd 06 cf ad bd b6 87 26 bd aa 9c 90 bd
       -0.06537446 -0.08486752 -0.040656768 -0.07061131
000010 fa 59 84 bd 87 b5 ac bd 13 53 15 3e 52 c2 22 bc
       -0.06462474 -0.08433061 0.14582472 -0.009934025
000020 67 83 1c 3c 9f 88 29 3e 64 48 e5 3a 60 3f 64 bc
       0.009552813 0.16556023 0.0017492888 -0.013931125
000030 04 9e 8a 3e 8d 65 2c 3d 85 85 3d be 49 fe dc 39
       0.2707368 0.042089034 -0.18507965 0.00042151127
000040 d3 5b 0f bc 2f 4d 8c be d8 ef 63 be 56 62 49 be
       -0.00874992 -0.27402636 -0.22259462 -0.19666418
000050 07 7d 81 3e 78 24 0f bc 86 b6 51 bd fc 8b 5b be
       0.252907 -0.008736722 -0.05119946 -0.21440119
000060 70 d8 a9 bb 11 a6 64 3e 99 96 17 be 4d 5d 22 be
       -0.005183272 0.22328974 -0.14803542 -0.15855904
000070 c1 94 91 bd 14 9c 59 3d b2 53 90 3c f8 fa 0a be
       -0.07108451 0.053127363 0.017618034 -0.135723
000080 07 5f aa bd 28 c5 4f 3e 5d f3 b3 3d 15 c3 39 3c
       -0.08318906 0.20290053 0.08786652 0.011338015
000090 2e 3c f1 3c 46 ef 72 3d 30 6f ba 3c 03 7a 21 be
       0.029447641 0.05931022 0.022758096 -0.157692
0000a0 ed 3c 32 3e da 09 78 3e c4 5f a7 3c 94 9d 44 3c
       0.17406054 0.24222508 0.020431407 0.01200046
0000b0 3f dc 0c 3e 57 62 36 be 0d 67 9d bd 1d 56 ed bd
       0.13755892 -0.17810951 -0.07685671 -0.115886904
0000c0 58 e4 15 3c 29 e8 10 be c0 96 3a bd 1e aa 81 bd
       0.00914868 -0.14151062 -0.045553923 -0.063312754
0000d0 14 b1 6e bd 24 3f 39 bc 95 09 3d 3d 09 f7 17 3d
       -0.058274344 -0.011306558 0.046151716 0.037100825
0000e0 52 ba 8b 3d 30 ea c3 bc 91 32 5a 3d 3e ec 0f 3d
       0.06822647 -0.02391538 0.05327088 0.035137407
0000f0 61 95 08 3e d7 b2 c5 bd 01 48 71 bd 74 29 20 3e
       0.13338234 -0.096532516 -0.05890656 0.15640813
