PPO-continuous/2333_test/best/actor.pth (torch, 33683 bytes, 7 tensors)

log_std f4 [1, 12]
00000000: faa1 49be 0c9c 623b 5ffb 5d3d 2a43 5abe
00000010: cda1 d5be b521 18bf 4a06 42bf 9802 863e
00000020: 3bbe 8f3e 7a88 c43e fa46 e7be 483b 87bd
-0.19690695 0.0034577874 0.054194804 -0.21314684 -0.41725007 -0.5942643 -0.75790846 0.26173854
0.28074822 0.38385373 -0.45171338 -0.06603104

fc1.weight f4 [64, 45]
00000000: ae6f e2bd 499e 153e 9fee aa3e 5711 fe3d
00000010: a3ac 3a3b b8f0 11bf 5a15 e4bc 5275 2ebe
00000020: 12b0 12bc cb56 8dbd 9856 bfbd 39cc 3b3e
00000030: f59f d03d 61c9 943e 452e b13e 274e a23d
00000040: ab69 96be 85d3 b63e 19c7 fb3e d343 24be
00000050: f802 04be c5e6 b83d ce7f c13d d5b2 97bd
00000060: 03a3 203e a631 ca3c 9aee 82bd 984a 503c
00000070: a836 a7bc 0bf6 623c 8da6 4e3d 1669 8d3f
00000080: 6166 64bf bce0 063e 2e68 3e3e 1e7c 2bbe
00000090: 4a91 eb3d 97fb f9be 02e9 713e a480 1d3e
000000a0: 0c67 76bd 5e89 e2bc 08af 1dbe 5fe8 c23c
000000b0: 9fff 03be 0fe9 bfbe 2ec6 643e 3707 1fbe
000000c0: 0bf1 c63e 8e88 113e e1e9 22be 6307 623e
000000d0: 49f5 e8bc 37f1 113e 4a60 073e 9412 383e
000000e0: 6011 1bbc bf76 5fbe 56dc 86bd 8c0b b4be
000000f0: e4eb 80bd 99fe 7e3e f693 f03d dd7d b03d
00000100: fbbd 21be 0168 a03c 658b 08be 4c5f f8bc
00000110: c892 a1bd 964b 253e eeb8 debd a0e0 1fbe
00000120: 7762 d83b ca2e d7bd c3c1 1d3e 7fc5 d63d
00000130: 8ecf 113f 8893 d4bf c8e3 d33e 7ce6 873e
00000140: 4779 1ebf 96f2 463e 2609 c9be da55 913e
00000150: 9937 a9bd 59dd 743d 538a 853b 6a37 2abd
00000160: 343c 3f3e 91dc 27be 6a67 943e 9a2e 953e
00000170: c73d d7be b61b e73d c8cd 31bd 6d1d ce3e
00000180: 3afa 103e 301d 2a3c c94b 28be f0d1 80be
00000190: b8e8 c9be 3727 b7bd 4f7c 02bd a93c dcbd
000001a0: 6373 f2bc eb91 9b3e ad47 f33d 7036 6e3e
000001b0: b2a3 43be dcfe e83e d5db 0c3e 5588 3abe
000001c0: 5190 b7bd e8ff b13e ee10 98bd 7caf f13d
000001d0: 77eb 53be 2b38 a23d 1c56 2fbd da6f f2bd
000001e0: 86d3 943c 5803 d8be d377 c43f 1177 c33e
000001f0: 9ca6 3c3d aa4e 1d3f 124a 733d a2df 1c3e
00000200: 0a3e cabe a91f a3be 43f2 e8bd aa92 b23d
00000210: 1343 88bd 1928 863c 2b46 b03e da66 0bbe
00000220: 05fb 35bc e8ab e4be 4893 79bc e9b6 c23e
00000230: 7cbd b5be 3ed7 753d 200e ef3d 1d3a 2e3d
00000240: b3ac ee3d 7dde 4bbe 90c0 763d 5838 32bd
00000250: 89b2 ddbc 1864 453e 85cf 4abe 4ac0 193b
00000260: 2ef3 3e3d f655 7d3e 08b3 9d3c 9ec8 07bd
00000270: 4ec1 723e 2e2e c6bd 4213 7f3d 8cdb 983d
00000280: 8dbe 053e dff2 9ebd 9ce3 3abc 225e 0cbb
00000290: 1882 653c 48c4 8f3b 2653 933f 57f2 483e
000002a0: 30a2 49bb 04a4 293f a7e5 bfbc ee5c a63a
000002b0: 7652 36bf 59ec 35be a715 7ebd c676 d3bd
000002c0: f7e3 c63d ddbc 9a3e f0ba 88be 95ae 9fbe
000002d0: b1d5 48be f399 883d 76ef babd 0f55 95be
000002e0: a819 e5be 33f8 48be d20f e4bd 9ee7 66bd
000002f0: 59d4 9abd 9c69 5f3e c6d6 7a3d 56f0 cd3d
00000300: df86 dfbd 88fa 95bd 6410 f7bd ea48 523d
00000310: 61a8 a4bd 277e 2e3e 7130 ba3e 2c5f 673e
00000320: c997 333e 01cc 70bd 9efe e5be 5dfe 433e
00000330: c605 9e3d 682e 94be c3da 823e 7c40 a73e
00000340: 226e 753e e110 68be aa33 0c3e 27de d33e
00000350: 2097 82bf 8862 18bf c775 12be e287 f9be
00000360: def6 6bbd 6adb 09bf 5b54 c53d d831 95bb
00000370: e5cc c1bb 7fd3 9d3d 5502 1a3d 26c1 debd
00000380: 3b53 22bd e47f 613e e31e f5bd 14df 9f3e
00000390: 861a 1ebf e8e6 f4bc 84ad 103f 312b 3dbe
000003a0: dbef 123e d2c7 ad3c f6ef 853d 5e7b d2bd
000003b0: e4d4 df3d d141 283e 2c71 3c3e fde1 92bd
000003c0: 2edc 203c bae5 0cbe c039 843e 1981 0bbf
000003d0: a7eb f03d 3512 b8bc ddce ff3c 3053 67be
000003e0: 99ab 8d3e 7a34 36be c504 19bd 8d82 06be
000003f0: 3bcc cebc 4312 21bd 61e3 61bd e112 9a3d
-0.110564575 0.14611162 0.33385178 0.12405651 0.0028484247 -0.5700793 -0.027842212 -0.17036942
-0.008953111 -0.0690132 -0.09342688 0.18339624 0.101867594 0.2905989 0.34605613 0.079250626
-0.29377493 0.35708252 0.49175337 -0.16041498 -0.12891757 0.09028391 0.09448205 -0.074071564
0.15687184 0.024681877 -0.06393166 0.012713097 -0.020411804 0.0138526065 0.050451804 1.1047695
-0.8921872 0.13171667 0.18594429 -0.16746566 0.11502321 -0.4882476 0.23624042 0.15381104
-0.060156867 -0.027653392 -0.153988 0.023792444 -0.1289048 -0.37482497 0.22341225 -0.15530096
0.38855776 0.14212248 -0.1590953 0.2207313 -0.028437274 0.14252172 0.13220325 0.17975837
-0.009464592 -0.21822642 -0.065849945 -0.3516506 -0.062949926 0.24901809 0.11746971 0.086177565
-0.15795128 0.019580843 -0.13334425 -0.030318879 -0.078893244 0.16142115 -0.10875116 -0.15613031
0.006603535 -0.10506971 0.15405945 0.10486888 0.5695733 -1.6607523 0.4138472 0.26543033
-0.61903805 0.19428477 -0.39264792 0.28385812 -0.082625575 0.059781406 0.0040753274 -0.041556753
0.1867531 -0.16392733 0.2898515 0.29137117 -0.4203932 0.11284582 -0.04340914 0.40256825
0.14157954 0.010382935 -0.1643516 -0.2516017 -0.39435363 -0.089430265 -0.03185683 -0.107537575
-0.029596036 0.30384764 0.118789054 0.23262954 -0.19105414 0.45506942 0.13755734 -0.18216069
-0.08963073 0.34765553 -0.07425104 0.11801049 -0.20695291 0.079208694 -0.04280673 -0.1183774
0.018167268 -0.4219005 1.5349067 0.38176778 0.04605733 0.61448157 0.05939681 0.15319684
-0.39500457 -0.31860092 -0.11374333 0.0871938 -0.066534184 0.016376542 0.34428534 -0.13613454
-0.011107211 -0.44662404 -0.0152328685 0.38030174 -0.35496128 0.060019724 0.11672616 0.04253589
0.116540335 -0.19909091 0.060242236 -0.043510765 -0.027062671 0.19276464 -0.19805725 0.002346056
0.046618633 0.24739823 0.019250408 -0.033150308 0.23706552 -0.09676777 0.062274225 0.0746375
0.1306097 -0.07761168 -0.011406805 -0.0021418412 0.014008068 0.004387412 1.150975 0.19623695
-0.0030766837 0.66265893 -0.023424936 0.001269249 -0.71219575 -0.1776594 -0.062032368 -0.103253886
0.097114496 0.30222216 -0.26705122 -0.31187883 -0.19612767 0.066699885 -0.09127705 -0.29166457
-0.44746137 -0.1962593 -0.1113583 -0.05637323 -0.07560033 0.2181763 0.06123998 0.10055606
-0.109143965 -0.07323176 -0.12063673 0.051339068 -0.08039928 0.17040311 0.36365083 0.22594899
0.1753837 -0.058788303 -0.4492082 0.1914 0.07715945 -0.28941655 0.25557527 0.32666385
0.23967794 -0.22662689 0.13691583 0.41380426 -1.020237 -0.59525347 -0.14302741 -0.48736483
-0.057608478 -0.53850424 0.0963523 -0.004553061 -0.005914318 0.07706355 0.03759988 -0.10876684
-0.039630156 0.22021443 -0.11968782 0.31224883 -0.6175922 -0.02989526 0.56514764 -0.18473507
0.1434931 0.021213446 0.065399095 -0.10277437 0.109292775 0.16431357 0.18402547 -0.0717201
0.00981812 -0.13759509 0.2582531 -0.5449386 0.11763697 -0.02246962 0.03122657 -0.22590327
0.2766998 -0.17793456 -0.037358064 -0.13135739 -0.025243869 -0.039324056 -0.055148486 0.07523132

fc1.bias f4 [64]
00000000: e7e5 643a 4d98 d0bc cdd9 ec3b 930e 7abd
00000010: a4f0 d33c 7bef c4bc 7c1e b4bd d122 553d
00000020: 7b03 a73b 8044 b03c d770 5fbc 0e4a 92bd
00000030: 5f26 c5bc 3dd7 b0bb 0ef8 763d 904c 64bd
00000040: 8a37 973c 3bd7 74bd de94 b6bd b4ed 9d3c
00000050: 23ae 63bd 2bbc 243d 15a9 17bd 1e58 2e3c
00000060: b426 a0bc fba3 9ebc 999e 373c c71b 9abc
00000070: 05df 9bbd b7d4 263d ae78 a6bd 3ccb b0bd
00000080: 0165 4dbd 232d 973d 65ed 0abd 911a e3bc
00000090: 9e13 e9bc 1b67 d8bd e6a6 c0bd e628 4a3d
000000a0: 0b2a 703d da80 8dbd 9d5a ce3b cb41 843b
000000b0: f756 ecbc 8b48 13bd 8f8d 48bc 264b e1bb
000000c0: c45a 6b3a 495d 8a3d 367b 393d 0fdd 213e
000000d0: 9d4b 053c a416 353d 94d9 39bd 1449 cc3c
000000e0: 809c b2bb d6a0 50bb e3e7 c4bb 869e ea3c
000000f0: cda1 3fbb 6400 343c a383 55bc 2ba5 b5bb
0.0008731768 -0.025463248 0.0072281123 -0.061049055 0.025871582 -0.024039974 -0.08794877 0.052035157
0.0050968505 0.021517038 -0.013637743 -0.07143031 -0.024066148 -0.005396752 0.060295157 -0.05573708
0.0184591 -0.059775572 -0.08915113 0.019278385 -0.05558599 0.040218513 -0.037026484 0.010641126
-0.019549705 -0.019365301 0.011207246 -0.018812073 -0.07610897 0.040730204 -0.081284866 -0.08632514
-0.050145153 0.07381656 -0.033917803 -0.027722629 -0.028451737 -0.10566541 -0.09406833 0.04935541
0.058633845 -0.06909342 0.006297423 0.0040361634 -0.028850062 -0.035957854 -0.012240781 -0.0068754135
0.00089780637 0.06756074 0.04528352 0.15806983 0.008135703 0.044211045 -0.045373514 0.02493719
-0.005450785 -0.0031834147 -0.0060090884 0.028640043 -0.0029240728 0.010986421 -0.013031873 -0.005543371

fc2.weight f4 [64, 64]
00000000: e140 8fbe d17b 933e f174 473e c2b1 5fbe
00000010: 6571 023e 62b6 37be c676 32bd 842a 813d
00000020: 0cbb cdbd d553 983e 943f 153f 717f ec3e
00000030: 7ada ac3e efdf 0a3d 2bf1 f4bd 7240 9a3e
00000040: 9744 c8bb f7ec 793e 502a f1be 3758 3fbe
00000050: 53bd 6a3e fb09 c6be 267a 733e de1e cd3d
00000060: 81a6 cebd 9970 a1be ddf7 52bd a349 0a3b
00000070: 10a5 ce3e eed9 5ebc b5bc f8be 2390 753e
00000080: 991f c83e a967 afbc 4d6c 28be d066 9d3d
00000090: c6b5 923e 9581 c7bd 638b e0be da61 b6be
000000a0: b7cc f33e 33a7 193e 2da6 7c3e cf49 7b3d
000000b0: 9556 cc3e fdd4 87be c757 523d 9554 b8be
000000c0: 28a6 92be 5a2a 90bd 72a6 99bc 1d7d 843e
000000d0: 46d5 05bd cece 2b3e 1186 dabd 1eb7 b63d
000000e0: ea25 7bbe ab1a 4abe f9cd 1b3b c6bc 993e
000000f0: 0349 013e 787a a5bc 9ac5 d23d a18f 193e
00000100: c629 0dbe eaa5 dc3e ef57 4cbd c432 5ebe
00000110: 5722 64bd 0750 95be e02e 4dbe f7c5 8cbe
00000120: d6f3 d93e b7e1 ebbb da23 f83d 51dd 683d
00000130: 89f3 713d 8550 5cbd bb34 9b3e a052 2a3d
00000140: 0696 0d3d f46a 6c3e 67ea ffbc 3cbc 8bbe
00000150: 67a6 e3be 7f74 4c3e c79c 8d3d cae4 503e
00000160: 7ff6 1d3e ee20 94be fe95 b83e 7a56 e83d
00000170: 930b c23e bc5d 58bd dac5 cfbd cb6b 263d
00000180: b196 f1bd 30ed 1a3f aa1b 373e 689b 7fbe
00000190: bcf7 06be fd7c 8f3d 6629 9a3d 9cfe 05be
000001a0: 5c7a bd3e 80cf 333e e4bc 8e3e c448 08bf
000001b0: fff4 01bd afcd f2bd cbf4 0bbd e540 a5be
000001c0: 9cb2 9ebc a497 bc3e 273f b63d 5261 673e
000001d0: 6eb7 6c3e 659a 0e3e 6c61 f3be 4cf4 3fbe
000001e0: d7a9 703c 4af6 4b3e 13cd c33d 7097 b23a
000001f0: 4329 8b3e aa8e eabd be04 5b3e 05ae 2c3c
00000200: 2058 483e ad60 3abe aba8 8fbe 0384 fc3e
00000210: f2c5 25be 6350 543d 2d65 0b3e e3bd 85be
00000220: 80ba 01bf b8fd 8e3c 4f14 653e 98f3 c4ba
00000230: 9ad6 2f3e b269 fc3e cb63 5dbd 8ec0 973d
00000240: 38a2 ef3c d807 26be 09fe d3bd db8b fabe
00000250: b2df 35bd cbc8 5d3e 2d4c 873d f5da 01bd
00000260: 77b3 20be 534a 983e a3d8 d6be 5d6f 6f3e
00000270: 2a1a 103d dfe4 573e 7d78 04bd 5f3a 903e
00000280: a2c9 a53e ceb8 cb3e 65cb 513e 1b3c c4be
00000290: 899e 93be 9e96 603d ef79 dd3e 5f78 4dbd
000002a0: e1ac 433e 1efe 13be 2438 a83e 4a87 6ebe
000002b0: 83ca df3d bf10 683e ebc4 563d 1e3f bc3d
000002c0: 78b5 363e f2fa 04be 2cbf 8fbe 1a28 c7bd
000002d0: 05d7 14bf c616 80be 6440 4cbe 26c4 f23e
000002e0: b9aa 21bf a91f aebe 3e5e 0b3e 0bd7 4d3d
000002f0: bcff e93d 7987 06bf 33f7 9bbd 2bf8 ddbe
00000300: 11e0 e1bd d90e 33be d605 b13d 56c4 1dbd
00000310: eecc 5ebe d318 1d3e 1e42 82be f1db af3e
00000320: bfc4 883e ca8f c2bd 5d29 4bbd 9bd0 1cbf
00000330: d9a6 5b3d bff6 af3e dd3a 563e a72e 953d
00000340: a9f4 16be 1f6f 053d c6da be3e 10f5 73be
00000350: 28c5 27be 41c4 9abd 786a e0bd 2d9c bfbe
00000360: a8f7 6dbe dedc 52bb 765b 8b3e b4da 0ebf
00000370: 1455 c9bc 8768 3b3e a603 9bbe 2870 a6be
00000380: ded5 fa3d 72d1 3a3c 77f3 933e 279b 783d
00000390: b454 8c3d 4b94 c53e 35dd 90be bcc9 733e
000003a0: 08f3 3cbe 8f9e b3bc 6c6f cc3d ce6f 293e
000003b0: 63bd 68be a17a 163e 240c 053f be97 bf3d
000003c0: 65e5 bc3e 222d 843e a2ea 513e 7176 ad3e
000003d0: 583e 5cbd b926 38be 1da7 8ebe 5b86 773e
000003e0: 0d6d 44bd 0a1f f33d 04cd a33e 5abe bc3e
000003f0: b559 0bbf 4352 313e dd30 763c f2d0 87be
-0.27979186 0.28805402 0.19478203 -0.21845153 0.12738569 -0.17940667 -0.043570302 0.06306937
-0.10045442 0.2975146 0.5830014 0.4619098 0.33760434 0.033904966 -0.11960062 0.30127293
-0.006111692 0.24406801 -0.47102594 -0.18685995 0.22923784 -0.3867949 0.23777065 0.10015653
-0.10090352 -0.31531218 -0.051505912 0.002110102 0.40360308 -0.013601763 -0.48581472 0.23980765
0.39086607 -0.021411734 -0.16447563 0.076856256 0.28654307 -0.09741513 -0.43856344 -0.3562153
0.47617123 0.15005188 0.24672766 0.061349686 0.39909807 -0.26529685 0.051353242 -0.3600203
-0.28642392 -0.07039328 -0.018756125 0.25876704 -0.032674097 0.16778108 -0.106701024 0.089216456
-0.24526182 -0.19736736 0.0023773892 0.30026835 0.12625508 -0.0202 0.10291596 0.14996196
-0.13785467 0.43095332 -0.049888548 -0.21699053 -0.05569681 -0.2916262 -0.20037413 -0.27494785
0.42568845 -0.007198538 0.12116213 0.05685169 0.059070144 -0.053787727 0.30313668 0.041582704
0.0345669 0.23087674 -0.031239701 -0.2729205 -0.44462892 0.19966315 0.069146685 0.20399776
0.15426062 -0.28931373 0.36051935 0.11344619 0.37899455 -0.052823767 -0.10145159 0.040630143
-0.1179632 0.6051817 0.17881647 -0.24961627 -0.1318044 0.070062615 0.075274274 -0.13085407
0.37007415 0.17559624 0.27878487 -0.5323603 -0.031727787 -0.11855637 -0.034169 -0.32276073
-0.019372277 0.36834443 0.08898764 0.22595719 0.23116848 0.13926084 -0.47535264 -0.18745536
0.0146889305 0.1991817 0.09560599 0.0013625454 0.27179918 -0.11452992 0.21388528 0.010539536
0.19564867 -0.18200941 -0.2805837 0.49319467 -0.16188791 0.051834475 0.13612814 -0.26121435
-0.506752 0.017454967 0.22371028 -0.001502621 0.17171708 0.4929939 -0.054050248 0.07409774
0.029252157 -0.1621393 -0.10351188 -0.48934826 -0.044402786 0.21658628 0.06606326 -0.031702954
-0.1569346 0.29744205 -0.41962156 0.23382325 0.035181202 0.21083401 -0.03234147 0.28169534
0.32380396 0.39789432 0.20487745 -0.38327107 -0.2883189 0.05483114 0.4325709 -0.050163623
0.19108917 -0.14452407 0.32855332 -0.23293796 0.10927298 0.22662638 0.05243389 0.09191726
0.17842662 -0.12986353 -0.2807554 -0.09724446 -0.58140594 -0.25017375 -0.19946438 0.47415274
-0.6315113 -0.3400853 0.1361017 0.05025391 0.114257306 -0.52550465 -0.07615509 -0.433534
-0.110290654 -0.17486133 0.08643691 -0.03851732 -0.21757862 0.15341501 -0.25441068 0.3434749
0.26712605 -0.09500082 -0.049599994 -0.61255807 0.053625915 0.3436794 0.20920892 0.07284289
-0.14741768 0.032576676 0.37276286 -0.23823953 -0.16383803 -0.07556964 -0.10957807 -0.3742384
-0.23239005 -0.0032175104 0.27218217 -0.55802464 -0.024576701 0.18301593 -0.3027622 -0.32507443
0.12247823 0.011402475 0.28896686 0.06069484 0.06852093 0.385897 -0.28293768 0.23807424
-0.18452084 -0.021926193 0.099821895 0.16546556 -0.22728495 0.14695217 0.5197165 0.093551144
0.36893764 0.25815684 0.20499662 0.33879426 -0.053770393 -0.17983522 -0.27861872 0.24172346
-0.04795556 0.118711546 0.31992352 0.36863977 -0.5443376 0.17316537 0.015026298 -0.265266

fc2.bias f4 [64]
00000000: d265 f23c 601c 09bd b6f1 61be 966c 913e
00000010: 7d6e 3cbd a4bf ddbc 6ccb 423e 935c 043e
00000020: 56ef 9b3d c2df 8fbd 1e77 3cbd 40e5 133e
00000030: 64dd d33d a9ec 8fbd e26e babd 5f5f 2c3e
00000040: 4b4e 2e3d 7e33 28be c405 56bd d0bd 103d
00000050: 5c61 0ebe 797c 9dbd fe70 0a3e 91a4 043d
00000060: 6edd 043e ffef 06bb c46d c33d f551 fcbc
00000070: c293 623c a082 f8bd a404 b1bd 257c e9bd
00000080: a2a0 2a3d 19e4 d3bc 3db4 833d 2b9f 813e
00000090: 6edb 413d be79 653c bc21 fdbc 71ad 3bbe
000000a0: be8e 74bd bb34 173e 1515 af3b a628 913d
000000b0: 56a3 8bbd 675c 14bc b602 3fbe c3ca d1bc
000000c0: 21ae 173d 8c7f 1a3e 0bcb 97bd 91ef 443d
000000d0: 388c 24be cfc8 a63c b86a 2e3e 756a c93d
000000e0: 5da3 10be bff2 a03c baf7 3f3e b4e3 02bd
000000f0: 7422 e9bc 5a0e 713d ac9b 2c3e 2820 cfbc
0.029589567 -0.033474326 -0.22064862 0.28403157 -0.046003807 -0.02706892 0.19022912 0.1292594
0.07614009 -0.070251 -0.046012037 0.1444292 0.10344961 -0.07027561 -0.091031805 0.16833256
0.042555135 -0.16425893 -0.052251592 0.03533727 -0.13904327 -0.07689757 0.13519666 0.032383505
0.12975094 -0.0020589826 0.095424205 -0.030800799 0.0138291735 -0.1213429 -0.08643463 -0.11400632
0.041657098 -0.025865601 0.06430862 0.25316748 0.047328405 0.014006076 -0.030899875 -0.18327881
-0.059706442 0.14766209 0.0053430893 0.07087831 -0.06818263 -0.009055234 -0.18653378 -0.02560938
0.037031297 0.15087718 -0.07411774 0.04808003 -0.16069114 0.020359425 0.17032897 0.09834758
-0.14124818 0.019647 0.18746844 -0.031955436 -0.028458811 0.058851577 0.16856259 -0.025283888

mean_layer.weight f4 [12, 64]
00000000: e38f d2be 1b24 5a3d d5c0 32be b543 303e
00000010: a8bb f5be 5e24 4fbe d23f 523e 1729 4a3e
00000020: 94a2 f7bc b6e0 dabd 21e1 8abe 79c1 e63d
00000030: 659b ac3e a7e1 723e 7060 e93c c222 78be
00000040: 9120 1fbe 2c7a 31bd 3c58 2fbe a9ff eabc
00000050: 5694 ed3d eb1a 3bbe c9da 0dbf 3e43 92bd
00000060: 180a 8a3c b343 1a3e fe58 543d 7b0c 433e
00000070: 1eab 473d be52 b5bc 86a3 943e 846a 63bd
00000080: f7c6 993d 1cd9 59be 6f3b ad3d 66ff c5be
00000090: e031 1b3e 1726 b73c 892a 9f3d c9b8 a2bd
000000a0: b232 983e d501 c63d ac41 fd3d 2751 41be
000000b0: f64a 353e 3db2 62be 600f 283e dc0f d83c
000000c0: 4222 683e 106b 9bbe 81f7 903d 94d4 9b3e
000000d0: c704 4fbe ce1c 883e 39fa 353d 999e fdbe
000000e0: 0504 71be 0d48 1ebe 0e6a 4ebd 6a98 4a3f
000000f0: 9a18 29bd d593 3fbe 910f 15be beaf 87bb
00000100: 7a7e a13e f4b4 07be 8fa6 7c3d 42aa 033d
00000110: ec24 5fbd 1b14 103f 7467 e6bc 05a0 333e
00000120: b616 6e3d 4ee9 7b3e e99c b9be cd49 febd
00000130: 88e9 a3be 2467 eb3d 6afe 75be e920 d33e
00000140: 4164 c93d 9231 813e 2ba3 973d ab59 633e
00000150: aa76 843c 6f25 6fbe 704e 25be c669 a1be
00000160: 017c a5be 200e 963d e184 5bbe 536a 68be
00000170: 658d 4bbe de2c 09be 4c3f 2b3e d9a5 213e
00000180: 4123 7f3e dfe3 143e 809b ddbd f123 4f3e
00000190: 03bd 123e 1bba 693d faa2 0dbe f5bc 06bf
000001a0: ad5a 453e bcb5 2a3e 705c 623e 1b89 333e
000001b0: bead 923e 553f 833e 82a9 313e 759f 1d3c
000001c0: 2034 37be c676 903e f273 afbd 3d4a 95bd
000001d0: ae43 db3e 2719 bdbe 6c79 8f3e e1f2 3a3e
000001e0: 54a4 4b3e 7a29 a5bb e4c1 283f 82bf ec3c
000001f0: 5765 d53d bbed 7c3e e1f8 ce3e b218 bf3e
00000200: a5e0 c73e 38ff 6abd cb34 923e 9379 d1be
00000210: a2c0 7f3d c1b7 bf3e 135b 4ebe 66c5 abbd
00000220: c777 9b3e 80dc 03bc 92c9 07be 9d17 9abd
00000230: 3680 27ba d780 a7bd 31cf b13e 031b ea3d
00000240: 9e76 64be ef0b 133e da31 2ebc 4863 663e
00000250: 9516 03be 0226 633e ff0e 4abd eb25 20be
00000260: cb43 f33d def9 b03b 4634 53bf 17cc c63d
00000270: fa7b a0be 434d 26be 8437 d53d 436a 6c3d
00000280: 25bb f83d ef06 a13d c2c1 91bd 7b44 dabd
00000290: fd5e 5ebe 4d92 6d3d f0a6 97be d6e5 7c3e
000002a0: 0ee9 a2be 5e36 b1be 8dba 9dbd f511 bdbe
000002b0: e9ad dcbe 572e df3e a6d5 d63e fe29 f3be
000002c0: bdb0 973b e208 5d3e 66a1 6cbe c46a 523e
000002d0: c226 ed3d 45db 84be 5df9 56be c567 72bd
000002e0: 68f7 3bbe 9159 01be ccf2 04be cbdc 8abe
000002f0: 989c 203e 625c 123e 4f4d 993d 4d40 013e
00000300: 89bc 8fbe 9fb8 d03c 417c d1be f680 d33d
00000310: 4951 fb3d 5bc4 41bf 39df d93d a541 de3e
00000320: 7727 943d c2f2 583e 744f a93e 8111 d23e
00000330: 02b6 313e b366 83be e0e5 443e 15d3 44be
00000340: d90a 50be ce71 8ebd 316d 903e 663a 8a3e
00000350: 3b92 afbc cac4 ecbd a79f a13d 4bea 173f
00000360: 055c d23d dcc1 f5bd 6734 073e 054b 703e
00000370: 7a09 873e 56e6 4dbe 5830 aebd d7b3 62bd
00000380: d686 09bf d3e8 29be 6cf0 e93c 0345 8c3d
00000390: 2add f5bd d515 dc3d 7acd 4b3f 01bd c33d
000003a0: cff8 e73d 7940 4cbe 03ca 43bd 3611 e93c
000003b0: 0569 0dbd 4aa3 06be 4857 4cbe a016 e83d
000003c0: 1094 093e 5a06 dbbd aef2 6dbd f974 be3d
000003d0: c3f0 07bf 7a22 b23e 1fb4 933b c4af b13d
000003e0: fa90 2abd af4f 1e3e b0d6 9dbe b1d2 e93d
000003f0: 61d9 cabd b135 04be e6ef 76be cbd5 85bd
-0.41125402 0.05325709 -0.17456372 0.17213328 -0.47994733 -0.20228717 0.20532158 0.19742237
-0.03022889 -0.106873915 -0.27124885 0.11267371 0.33712307 0.23718892 0.028488368 -0.24232009
-0.15539767 -0.043329403 -0.17123502 -0.028686361 0.116005585 -0.18271987 -0.55411965 -0.07141732
0.016850516 0.15064888 0.051842682 0.1904773 0.048747174 -0.022134181 0.29031008 -0.055521503
0.07508653 -0.21274227 0.08458602 -0.38671416 0.15155745 0.02235703 0.07771785 -0.07945401
0.29726177 0.09668318 0.123660415 -0.18878613 0.17704377 -0.22138305 0.16412115 0.02637475
0.22669318 -0.3035512 0.070784576 0.30435622 -0.20216666 0.26584476 0.044428084 -0.49535063
-0.2353669 -0.15457173 -0.05039411 0.79138815 -0.041283228 -0.18708737 -0.1455672 -0.004140823
0.31541806 -0.13252622 0.06168228 0.032144792 -0.05447857 0.5628068 -0.028125502 0.17541511
0.058127128 0.24600717 -0.36252525 -0.1241642 -0.32014108 0.11494282 -0.24022833 0.41236046
0.09833575 0.25233132 0.07404169 0.22202174 0.016169865 -0.23354124 -0.16143203 -0.3152601
-0.3232117 0.07326913 -0.21437408 -0.2269681 -0.19878156 -0.13396022 0.16723365 0.15785922
0.24915792 0.14540051 -0.10820675 0.20228554 0.14329915 0.05706225 -0.13831702 -0.52632076
0.19272871 0.16670889 0.22105575 0.1753277 0.2864818 0.25634256 0.17349818 0.009620537
-0.17890978 0.28215617 -0.08567037 -0.072895505 0.42825073 -0.36933252 0.28022325 0.18256713
0.19886905 -0.005040345 0.65920854 0.028899912 0.1041972 0.24700062 0.40424255 0.3732353
0.39038578 -0.0573723 0.28555903 -0.40913066 0.06243957 0.3744488 -0.2015193 -0.0838726
0.3036482 -0.008048177 -0.13260487 -0.07524035 -0.00063896494 -0.08178871 0.34728387 0.11430933
-0.22310874 0.14360021 -0.010632003 0.2249881 -0.12801583 0.22182468 -0.049330708 -0.15639465
0.11878165 0.0054008802 -0.8250164 0.09706896 -0.31344587 -0.1624041 0.104109794 0.057718527
0.1214507 0.078626506 -0.071170345 -0.10657593 -0.21715923 0.05800085 -0.2961955 0.2469705
-0.31818432 -0.3461179 -0.07701597 -0.36927763 -0.43101433 0.43590042 0.41959876 -0.47492975
0.004629223 0.2158542 -0.23108444 0.2054854 0.11579658 -0.2594854 -0.20993562 -0.059180994
-0.18356097 -0.12631823 -0.12983245 -0.27121577 0.15684736 0.14293054 0.074854486 0.12622185
-0.28073528 0.02547866 -0.4091511 0.10327332 0.12271363 -0.7569024 0.106382795 0.43409458
0.0723409 0.21186355 0.3306843 0.4102898 0.17354587 -0.2566429 0.19228315 -0.19221146
-0.20316638 -0.069553 0.28208306 0.2699768 -0.021432033 -0.11560972 0.078917794 0.5934188
0.102714576 -0.11999866 0.13203584 0.23466118 0.26374418 -0.20107397 -0.085053146 -0.05534729
-0.5372137 -0.16592722 0.028557025 0.068491004 -0.12005074 0.10746352 0.7961041 0.09557534
0.11326753 -0.1994647 -0.047800075 0.02845059 -0.034523983 -0.13148227 -0.1995517 0.113324404
0.13435388 -0.10694571 -0.058092766 0.092996545 -0.5310175 0.3479193 0.004507556 0.08676103
-0.041642167 0.15460084 -0.30827856 0.11417139 -0.09904743 -0.12911107 -0.24114951 -0.065349184

mean_layer.bias f4 [12]
00000000: b86a 90bd d1ee 773e 0e5c 85be 81a6 8d3c
00000010: 7e30 bbbd 577b 733d 28bc b1be f1ee 0abe
00000020: 08f0 fe3b 32e7 283e c8d4 c3be 7040 d53c
-0.07051605 0.24212195 -0.26046795 0.01729131 -0.091401085 0.059443798 -0.34713864 -0.13567711
0.007780079 0.16494444 -0.38248277 0.026031703
