PPO-continuous/2333_test/best/critic.pth (torch, 30615 bytes, 5 tensors)

fc1.weight f4 [64, 45]
000000 78 70 dc be 42 ad 9e 3e db 0c 5e bc 63 f0 cb bb
       -0.43054557 0.3099156 -0.01355287 -0.0062237247
000010 2d 03 2a 3e 0a 3b 9e be 49 34 02 3e 0f 10 23 3d
       0.16602774 -0.30904418 0.12715258 0.039810237
000020 51 f6 8d bd 8f f2 22 3e 50 df bf 3d b8 50 23 bc
       -0.06931747 0.15912841 0.09368765 -0.009967975
000030 3b 21 1f 3e e3 58 94 bc 66 e8 0f 3e 1d c6 48 bf
       0.1554002 -0.01810879 0.14053497 -0.78427297
000040 93 df 13 3f bd 2b 84 3e 1b cc 17 be 64 03 39 3e
       0.5776302 0.2581462 -0.14823954 0.180677
000050 10 9e 57 be 53 14 33 3e 9b e2 12 3e 27 03 0d be
       -0.2105639 0.17488222 0.14344256 -0.13770734
000060 6a ca b3 3e 22 6b 29 3c 02 96 31 3b cf c7 b6 bc
       0.35115367 0.010340484 0.0027097468 -0.022312073
000070 e6 93 68 3c ee d9 79 bb a0 5e 0a 3c c1 75 ad bf
       0.014195418 -0.003812428 0.008445412 -1.3551561
000080 53 6d ef bf 93 c6 66 be d2 d0 b6 be f8 9b d2 be
       -1.8705238 -0.22536688 -0.35706192 -0.4113462
000090 b6 4b f9 be ab c6 b7 3e ff ce de 3e cf 5a 71 bc
       -0.48690575 0.3589376 0.435173 -0.014731123
0000a0 28 40 64 be 85 d5 db 3c 59 d0 17 3e c9 41 75 be
       -0.22290099 0.026835212 0.14825572 -0.23950876
0000b0 86 b8 c5 be 2d cb 09 3e cc a9 00 3f 4d fb 97 be
       -0.38617343 0.13456412 0.5025909 -0.29683915
0000c0 21 9e 87 3e e4 84 70 be e8 7a 16 be 13 3e c4 3e
       0.2648783 -0.23488194 -0.14695323 0.3832861
0000d0 85 67 3e 3e 88 4a dc 3d f9 86 b2 bc 0c 29 0a 3e
       0.18594177 0.10756403 -0.021792876 0.1349222
0000e0 cf f0 b7 3d c4 f8 8f 3e 06 7f ea bd 58 7c 3e 3e
       0.089814775 0.2811948 -0.11450009 0.18602121
0000f0 db 99 ad be 5d 21 61 3e 53 92 09 be a3 ce 53 3d
       -0.33906445 0.21985383 -0.13434725 0.051710736
000100 ea f7 7a 3e 91 e1 8e bd f1 ca 0c 3e 89 f2 07 bf
       0.24508634 -0.06976617 0.13749291 -0.53104454
000110 a9 2b fd bc b6 96 7c be 9d 73 d2 3c 0c 45 71 3d
       -0.030904608 -0.24666867 0.025689894 0.05890374
000120 0a 75 df ba 75 ef ef bb bb 13 83 bb 82 2c 32 bc
       -0.001704843 -0.0073222467 -0.004000155 -0.010874869
000130 f6 4b 85 bf fd cf af bf 5e 55 0a bf 23 f1 22 be
       -1.0413806 -1.3735348 -0.5403651 -0.15912299
000140 29 26 17 3a 50 9d 4a be d9 ac fb 3e 5b 58 f8 3e
       0.0005765879 -0.19786572 0.4915531 0.4850491
000150 af 5d 94 bd 7f 14 10 3e 2f 75 dc bd 42 4a 6e be
       -0.07244431 0.14070319 -0.107645385 -0.23270515
000160 71 2a 26 be 24 83 cb be 09 51 3b bf d2 21 11 bf
       -0.16227128 -0.3974849 -0.73170525 -0.5669223
000170 11 4b 23 3f a1 2f 0d be 7d 2a 2a be ee d2 69 be
       0.6378642 -0.137877 -0.1661777 -0.2283437
000180 d3 90 d6 be 75 84 1e bd 12 8f 44 3e dd 60 7f 3b
       -0.41907367 -0.03870054 0.19195202 0.0038967647
000190 52 91 54 bd 57 38 7b bd b8 4b 48 3e 72 e1 81 bd
       -0.0518964 -0.061333027 0.19560134 -0.063418284
0001a0 b6 f5 af ba 80 71 11 be a5 9c 1d 3f 50 b1 17 3f
       -0.0013424668 -0.14203453 0.61567146 0.5925493
0001b0 fe 33 d9 bd ad 81 bd 3e 79 66 ee bd 63 28 02 3e
       -0.1060562 0.37012997 -0.11640639 0.12710719
0001c0 67 02 8c 3f 52 8b 00 bf e4 2f 13 be 6d ef c7 bc
       1.0938233 -0.50212586 -0.14373738 -0.02440616
0001d0 a0 86 4e bd 81 35 77 3c fb 34 86 bb b2 7c 24 3c
       -0.050421357 0.01508844 -0.004095671 0.010039495
0001e0 4a ed 2d bc d6 e7 5e 3e a6 5f 66 bf 86 f1 ac be
       -0.010615656 0.21768126 -0.899897 -0.33778018
0001f0 f0 b8 40 be 7b f2 18 bf a4 d5 0c bd c8 8a da be
       -0.18820548 -0.59744996 -0.03438343 -0.42684007
000200 fa cb cb 3d 4d 48 7a 3e f9 fd 2d 3e 5b a7 8f be
       0.09951015 0.24441643 0.16991414 -0.2805737
000210 11 0e 09 3e ac 6e 58 bd 71 1c cf be c5 4e 1c be
       0.13384272 -0.05283992 -0.40451387 -0.15264423
000220 ab d9 c7 3d 0a ba 48 3e 05 eb ca be 9c 5c 0b 3e
       0.09758314 0.19602218 -0.3963243 0.13609546
000230 1a b9 7a 3d 17 84 89 be 58 45 29 3d fd 50 b4 be
       0.061211683 -0.2685859 0.041325897 -0.3521804
000240 9e a3 ad bd 6b 41 0d be ce fa b0 3d d9 8c c9 3c
       -0.08478473 -0.13794486 0.08641587 0.024603294
000250 2d bb 7b bd 68 b3 a5 3d 57 44 8c 3d 25 e1 c4 3d
       -0.0614578 0.0809086 0.06848972 0.096132554
000260 2a 3c af 3e 78 2f 28 bd 17 02 bd be dd 5e 14 be
       0.3422559 -0.041060895 -0.36915657 -0.14489312
000270 e5 5f dd bd fd 7f ca 3d ac 59 4e be 01 b5 3a be
       -0.10809306 0.09887693 -0.20151395 -0.1823311
000280 d3 34 37 bd d4 48 47 3d df 92 ad bd 32 f7 15 bd
       -0.04472811 0.04865344 -0.08475279 -0.036612697
000290 ec 86 f0 bc c0 ee c7 3b e3 65 32 40 83 85 d5 3f
       -0.02936121 0.0061014593 2.7874687 1.668137
0002a0 12 1f eb bf c6 ea 54 3f 4d 19 bb 3d 16 73 eb be
       -1.8368857 0.83170736 0.09135685 -0.4598624
0002b0 8e 30 26 bf 1a 13 e4 be 14 36 bc 3e f8 5d f2 3d
       -0.6491784 -0.44545823 0.36760008 0.11834329
0002c0 f6 5a ad 3e 5c b6 f7 bc 11 1b 12 be 5f 3e 27 3e
       0.3385846 -0.030238323 -0.14268138 0.16332386
0002d0 5f 65 94 3d 8a b4 ce be a2 b3 a1 be 13 0f 6e 3e
       0.072458975 -0.40372115 -0.3158236 0.23247938
0002e0 fd b9 ec 3d 18 ad 28 bb 17 f9 8c 3e c2 54 64 3c
       0.11558912 -0.0025737938 0.2753379 0.013936223
0002f0 54 53 f4 3d e0 7f 14 3d 37 6c 05 3e 1b ca af 3d
       0.11929956 0.036254764 0.13029562 0.085834704
000300 e2 45 8a 3d 69 b4 78 bc 23 02 31 be 3d 0e 92 bd
       0.0675161 -0.015179732 -0.17285971 -0.07131622
000310 f4 39 3a be 48 84 33 3c d2 d6 26 3e 96 dc f3 3d
       -0.1818617 0.010956831 0.16292885 0.11907308
000320 78 b2 a5 3e 9e 9c ac 3e 1e 63 16 3e 20 8b 86 3e
       0.32362723 0.3371324 0.14686248 0.2627802
000330 d6 ec bb bd 26 82 99 bd 16 a6 18 bc af 7b e2 bc
       -0.09176032 -0.07495527 -0.009316942 -0.027646868
000340 aa ff 03 3c 0c 81 80 bb b1 fa 6b b8 8d 1a 06 c0
       0.0080565605 -0.0039216336 -5.626184e-05 -2.0953705
000350 c7 99 a0 bf 2c 71 23 40 da c8 33 bf 4e f6 47 be
       -1.2546929 2.5537825 -0.7022835 -0.19527552
000360 2c a7 4f 3f ca e0 14 3f 76 43 9b 3e 36 96 89 be
       0.8111446 0.581555 0.30324906 -0.26872414
000370 a1 38 27 bd a4 01 11 3f 71 90 e0 be 8f da 97 3d
       -0.04082549 0.5664313 -0.438602 0.074147336
000380 31 4b 2f 3d 9b 28 d5 3e 9a 4e 84 be 48 c5 38 3f
       0.042796317 0.41632542 -0.25841218 0.7217603
000390 b6 ce a8 3d b8 a7 3d 3d 1d 8a a1 3c b9 fa 95 be
       0.08242552 0.046302527 0.019719178 -0.2929285
0003a0 9a 36 a1 bd 93 95 e2 bd 6c 62 22 3e e1 81 fa bd
       -0.078717425 -0.11063685 0.15857857 -0.12231804
0003b0 83 a6 f5 3d e1 a8 0a bd 1b 66 75 bd 6b f5 8b 3d
       0.1199465 -0.03385246 -0.05991183 0.06833919
0003c0 56 b4 4a bc 8b 82 ad bd d6 6d cd 3e 26 45 c4 be
       -0.012372097 -0.08472165 0.4012286 -0.38334006
0003d0 b7 85 41 be 88 ed b7 3e 89 1e e7 3d 48 31 1a be
       -0.18898664 0.3592341 0.11285121 -0.15057862
0003e0 ea fb 3e bf 9e fe 7b 3d 03 39 24 3c 61 7e 1b bd
       -0.7460314 0.06152212 0.010023358 -0.03796232
0003f0 ac e5 db bb 89 b4 7c 3b bc a5 48 bb c1 73 84 3b
       -0.0067107286 0.0038559756 -0.0030616364 0.0040421193

fc1.bias f4 [64]
000000 30 0f 47 be cc ff d0 bd 34 8e 94 bc f4 c0 c4 3d
       -0.19439387 -0.102050394 -0.018134214 0.096071154
000010 2d 3f 66 bc f6 b6 dd 3c cb 2c 63 be 31 3b b1 bd
       -0.014053148 0.027064782 -0.22185056 -0.08653868
000020 e5 d3 b8 b8 59 a3 20 be 20 f9 e8 3d 78 dd a3 bc
       -8.813272e-05 -0.15687312 0.11375642 -0.020003065
000030 e7 61 43 bc 9f 34 58 bd 80 ec 13 be 1f 15 97 bd
       -0.011925197 -0.05278456 -0.14445686 -0.073770754
000040 c9 d4 2b bd 4f b6 da 3d 69 2d eb 3d f0 45 93 bd
       -0.041950975 0.10679304 0.11483271 -0.07191074
000050 8c 08 59 bd 49 8f f2 bd 85 2a 3c 3e 35 10 e8 3d
       -0.052986667 -0.11843736 0.18375595 0.11331216
000060 11 06 50 3d f9 69 49 bd 0f db 62 bc 55 4b 8c be
       0.050787035 -0.04917333 -0.013846173 -0.27401224
000070 96 9f 8c bd 25 3a ab 3b 12 ef c1 bd de cc 89 be
       -0.06866376 0.005225437 -0.09469427 -0.26914114
000080 48 57 3e 3e 82 cc 87 be b4 45 fd 3d e4 4a 06 3e
       0.18587983 -0.26523215 0.123668104 0.13114506
000090 50 14 04 be a6 40 04 bd ac 63 03 be 0c f5 3e 3d
       -0.12898374 -0.032288216 -0.1283099 0.046620414
0000a0 a5 12 6a 3e 91 af 27 3e d6 fb 6a be 08 f6 52 bd
       0.22858675 0.16375567 -0.2294763 -0.051504165
0000b0 b0 5b be ba 94 f5 28 bd 7d 51 ec bd bf 25 72 3c
       -0.0014523175 -0.041249827 -0.1153898 0.014779507
0000c0 6a 32 6d be 65 48 0a 3d 34 c1 32 3d 31 5e 70 3d
       -0.23163763 0.033760447 0.043641284 0.058683578
0000d0 e5 9d ec 3d 95 c3 04 bc d6 43 81 bd 9b 94 14 be
       0.115535535 -0.008103271 -0.06311767 -0.14509813
0000e0 0b b5 39 3e 2f b5 b6 3d 96 fa 0a 3d 6c 82 cd bc
       0.18135469 0.08921277 0.033930384 -0.025086604
0000f0 7b 93 3d bc b2 d1 84 bd 14 7a 0b 3e e0 eb af 3d
       -0.011570807 -0.06485309 0.13620788 0.085899115

fc2.weight f4 [64, 64]
000000 93 31 99 be 55 54 78 bd b3 cc 4c 3e 9e b5 a0 bc
       -0.29920635 -0.0606273 0.19999962 -0.019617852
000010 05 9c b4 bd 7a 0d a0 be 92 45 d7 be 2f 94 6c bd
       -0.08818821 -0.31260282 -0.42045265 -0.057758506
000020 6c c5 c7 3e 09 3c b2 be f2 52 fa 3e 19 7e 98 be
       0.39017808 -0.34811428 0.48891407 -0.29783705
000030 33 cf 0f be 86 93 e8 be ad db 4c 3d bc 10 e1 be
       -0.14043884 -0.4542505 0.050014187 -0.4395808
000040 22 40 e5 3d ff 41 d3 3d 49 ca ac be 6c 42 a1 bd
       0.11193873 0.10315322 -0.3374808 -0.07873997
000050 20 3f 37 3f 7d bc 22 be e9 30 dd bd 61 1f 12 3e
       0.71580696 -0.15892215 -0.108003445 0.14269783
000060 78 67 ec 3d 99 ac fe 3d ce 70 e5 be 67 61 29 bf
       0.115431726 0.12435264 -0.44812626 -0.6616425
000070 fe a2 c6 3d b5 9a 24 be 19 6a b8 3d 67 a4 3f 3e
       0.09699057 -0.16074641 0.090046115 0.18715058
000080 64 df ab bd f0 2b 9d be 3b 44 e9 3d 8c d7 94 3e
       -0.08392218 -0.30697584 0.11389967 0.290707
000090 3e 29 d1 bd 9b e9 42 3e 67 9a 65 3e 90 ab 22 3e
       -0.102129444 0.19034426 0.22422181 0.15885758
0000a0 75 01 7a 3f 26 11 17 3f b9 19 a0 be 19 5c 81 3e
       0.97658473 0.5901054 -0.31269625 0.25265577
0000b0 e9 6d 5a 3e a5 5c 0b 3e d1 a1 56 be c0 d8 df 3e
       0.2133099 0.1360956 -0.20960166 0.43720055
0000c0 99 2a 3c be fc 20 02 3e e7 77 e9 bd b0 c7 e7 bd
       -0.18375625 0.12707895 -0.11399823 -0.11317384
0000d0 b7 19 2d 3e 99 2d 66 be ff 7e 74 3d 58 4d 97 be
       0.1690434 -0.22478332 0.059691425 -0.29551196
0000e0 05 4a 45 3e 2d e1 6b be b9 34 09 3e ca 43 8a 3e
       0.19266517 -0.23035116 0.13399018 0.27004844
0000f0 ec 61 e5 be f2 22 8c be 98 84 a1 bd f7 d3 25 3f
       -0.4480127 -0.2737041 -0.078866184 0.6477656
000100 f6 23 26 ba ba bc 90 bd 00 30 8f 3e 08 b8 ef 3e
       -0.0006337756 -0.07067247 0.2796631 0.46820092
000110 75 e9 15 bf 82 e4 f1 bd 34 8b c9 be 48 2c f7 be
       -0.5855935 -0.118111625 -0.39364016 -0.4827597
000120 9f e8 ae 3d 83 7f 8b be 68 e2 0b 3e 32 24 ae 3e
       0.08540463 -0.2724572 0.13660586 0.3401199
000130 19 67 04 3f e9 75 70 3e 44 f9 5c 3e d8 5c 71 3d
       0.51719815 0.23482479 0.21579462 0.058926433
000140 73 42 51 be ab f4 49 3e 4d 1d 73 be fb af a4 3e
       -0.20435505 0.1972224 -0.23741646 0.32165512
000150 ef 80 d9 3d 9a f0 79 3e 2d 89 c6 3d 46 cf c5 3e
       0.10620295 0.24408188 0.09694133 0.386347
000160 52 a5 c4 bd d1 20 17 3e a2 d8 a6 3c ff df b4 bc
       -0.09601845 0.14758612 0.02036697 -0.022079466
000170 74 7d 16 3f 20 23 03 3e 0e 88 67 3d 1a 8b a0 bd
       0.58785176 0.12806368 0.056526236 -0.078390315
000180 42 bd 6d 3e 00 89 4c 3e 31 12 54 3e 37 cd 0b be
       0.23216727 0.19974136 0.20710064 -0.13652502
000190 99 13 e5 be 6f 8c b7 be e1 14 61 bd 9a 77 c6 be
       -0.44741514 -0.3584933 -0.054951552 -0.38763124
0001a0 64 01 af 3e b9 68 85 bd 47 9a 87 be 27 99 41 be
       0.34180748 -0.06514115 -0.26484892 -0.18906079
0001b0 7d 94 e4 3e b9 54 bc be ef 85 2b be a2 c4 cf be
       0.44644538 -0.36783388 -0.1675031 -0.40579706
0001c0 32 e7 8d be 7a 2f 85 bd 99 59 8e bd e9 06 52 bd
       -0.2771545 -0.06503196 -0.06950683 -0.05127612
0001d0 df 2a 2c 3d d7 a0 36 3e 54 ec b7 be af cc ad bd
       0.042033073 0.17834793 -0.35922492 -0.08486306
0001e0 75 a9 13 3e 3f eb 4c be 2d 7b ae be cd 94 2c 3d
       0.14420111 -0.20011614 -0.3407835 0.042134095
0001f0 b3 19 83 be 92 07 fb bd 61 23 44 3d 2e bd 52 3e
       -0.25605544 -0.12257303 0.047885302 0.20579979
000200 83 58 f2 3d f2 30 03 3d 16 82 48 3c 4f 1e 0e bd
       0.118332885 0.0320291 0.012238046 -0.034696873
000210 b6 fe 3a 3e a5 53 d5 3c 0c 05 94 3e 64 f4 91 3e
       0.18261227 0.026040861 0.289101 0.28506768
000220 d7 c0 80 be 3e 1b 8d 3e ab c1 78 3e 10 62 91 3e
       -0.25147125 0.27559847 0.24292628 0.28395128
000230 43 6e 80 be e7 27 e8 3e cc 69 46 be e2 1d 81 3e
       -0.25084123 0.45342943 -0.19376296 0.2521811
000240 83 c5 80 bc b7 52 43 3e 4b 09 ba 3e 6e 3e 50 be
       -0.01571918 0.19074522 0.36335215 -0.20336315
000250 8e b6 5d be fd 79 16 bc 31 d8 c1 be cb 29 90 bf
       -0.2165167 -0.009184358 -0.37860253 -1.1262754
000260 ee 54 d5 bd f8 71 c4 bd 6d 6c 25 3e b3 39 34 be
       -0.1041659 -0.0959205 0.16154642 -0.17600136
000270 ec 17 c8 3c a0 6f e2 3d ca ed d1 3c 54 7f e9 3d
       0.02442547 0.11056447 0.025626082 0.11401239
000280 3e 43 fb bd c2 67 4d 3e 69 26 f8 be e3 cb 25 bf
       -0.12268685 0.20059112 -0.48466805 -0.6476423
000290 b3 a6 31 3d 72 71 76 3d 30 be 61 3d 33 19 01 3e
       0.043371867 0.060166784 0.055113018 0.12607269
0002a0 0a 34 4e bf 44 0d 90 be d2 10 4b 3e fa 53 7a 3e
       -0.80548155 -0.2813512 0.19830635 0.24446097
0002b0 a7 60 ce 3d 80 6c 19 3d f5 3d df 3e bc 1c b7 be
       0.10077029 0.03745699 0.43601957 -0.3576411
0002c0 01 23 a1 3b de ac a2 3e 2b ca 7b 3c 9a 10 ca 3e
       0.004917503 0.31772512 0.015368025 0.3946579
0002d0 92 39 25 3c 9e f9 b0 be 41 c3 64 be db 50 a5 3d
       0.010084527 -0.34565443 -0.22340108 0.080720626
0002e0 cb e1 6f bd b4 5c 02 3e e4 df cc bd c8 4d 47 bf
       -0.058564942 0.12730676 -0.10003641 -0.7785306
0002f0 1d d2 f6 3d 53 36 5b 3e 14 d2 e9 3a bd 06 11 bf
       0.12051795 0.21407442 0.0017839097 -0.56650907
000300 cc 4f a0 be 35 66 09 be f5 1a 44 3e ae c1 6a bd
       -0.3131088 -0.13417895 0.19150908 -0.057313614
000310 2c 31 36 be 2f fb 14 be 4b eb 86 3d a2 19 c6 bd
       -0.17792195 -0.14548944 0.06587847 -0.09672858
000320 2b a7 f4 3e a3 01 d8 be cc 97 84 3e 07 b0 b5 3d
       0.4778379 -0.4218875 0.25897062 0.08871465
000330 60 3b 6f 3e b4 c4 50 bd 45 2d bd 3d c1 35 85 be
       0.23362494 -0.05096884 0.0923715 -0.26017573
000340 37 c0 73 be 87 a0 0e bc 7a 0e f2 be 6b 57 51 3d
       -0.23803793 -0.008705265 -0.4727667 0.05110876
000350 44 36 fe 3e 18 f5 fd 3c 89 65 c9 3e f1 69 02 3f
       0.49650776 0.031000659 0.39335278 0.50942904
000360 04 76 d7 bd 0a a4 39 3e a8 a0 46 be 09 9f e8 bd
       -0.105205566 0.18128982 -0.19397223 -0.113584585
000370 38 ee 39 be 0a ca 1d bf 40 83 3d be 27 f9 ed be
       -0.1815728 -0.6163641 -0.18507099 -0.4647915
000380 78 aa 24 3f 46 06 85 be cb 97 2f 3f 5a 60 04 3e
       0.64322615 -0.2598135 0.6859099 0.1292738
000390 4f f5 de be bf 42 2c 3e c0 ac e0 3d fa 38 8a 3e
       -0.4354653 0.16822337 0.109704494 0.26996595
0003a0 08 86 63 3f e8 54 e6 3d ac 7c ff 3d 6c 75 73 be
       0.8887639 0.11246663 0.12474951 -0.23775262
0003b0 02 ad 65 3e ba 98 22 3e 1a e5 1c bf 85 89 26 3e
       0.22429278 0.15878573 -0.6128708 0.16263397
0003c0 27 21 6e be 6e ea 62 3d 0f 30 5b bb a7 da 48 3e
       -0.23254834 0.05539935 -0.0033445393 0.19614659
0003d0 0c 37 0f bd 49 d5 5e be 77 44 32 3d d3 6f 46 3e
       -0.034964606 -0.2176105 0.043522324 0.19378595
0003e0 4a c9 81 3d 68 e3 e6 be 34 cc 19 bf b8 8b f9 3e
       0.06337221 -0.45095372 -0.60077214 0.4873941
0003f0 78 f8 dc 3e 8e ac 1e be 47 4b 72 3e db 60 bb 3e
       0.43158317 -0.15495512 0.23661529 0.36597332

fc2.bias f4 [64]
000000 e6 57 99 3d 2c e4 0d 3d 92 38 95 bd 19 65 28 bd
       0.074874684 0.03464143 -0.072861806 -0.04111204
000010 8b 6c cc 3d 63 ea 33 3e c4 75 74 3c b6 a6 8a 3c
       0.099816404 0.1756988 0.014920656 0.016925197
000020 88 16 c6 bc 66 b7 82 bd a2 51 a8 3d 89 d7 db 3c
       -0.024180666 -0.06382637 0.08218695 0.026836174
000030 ec 5d be 3b b6 5d e6 bd 85 b5 75 3e 44 35 17 3d
       0.005809536 -0.11248343 0.23995025 0.036916032
000040 01 94 54 3d 81 12 5a bd 41 3e 97 bd 27 3f e5 bc
       0.05189896 -0.053240303 -0.07384921 -0.027984215
000050 5b 38 d0 bd 11 96 cf 3c 54 05 5a bc a8 50 90 3d
       -0.10166999 0.025340112 -0.013306934 0.07046634
000060 4c b7 f7 3a c2 30 92 bc e3 fb 88 bd 14 07 23 bd
       0.0018899231 -0.017845515 -0.066886686 -0.039801672
000070 66 bb 20 bd 5a 0b 9a 3d 0a 6c 8a 3d 9d d1 bb 3d
       -0.039241217 0.075216964 0.06758888 0.0917084
000080 e1 dc 8c 3c c1 07 17 3d 2f ad 4e 3d 73 97 43 bb
       0.017195167 0.03687263 0.05045813 -0.002984491
000090 7f 1c cc bd fc 5e 3f bc 9d 54 c1 ba 3c 76 41 be
       -0.09966373 -0.011680361 -0.0014749948 -0.18892759
0000a0 1c 86 04 3e 11 40 43 3e 68 38 43 3d 2c c0 a8 bd
       0.12941784 0.19067408 0.047661215 -0.08239779
0000b0 33 84 ab 3d 8e 99 8a 3d 86 d2 05 bd dd 76 23 bd
       0.083748244 0.067675695 -0.032671474 -0.03990828
0000c0 33 96 62 bd 50 f4 52 3a b7 bf b4 3d 80 3b c9 3d
       -0.055319022 0.00080472697 0.08825629 0.09825802
0000d0 5a f9 ed bc a7 17 8f 3c dc 70 5d 3d f2 ee 18 bc
       -0.029049564 0.017467333 0.05406271 -0.009334313
0000e0 40 34 5f bd dc 7c 8d 3d be 64 bd bd 94 32 07 be
       -0.05449319 0.06908581 -0.09247731 -0.13202888
0000f0 9b c2 72 bd 34 8b 6f be 5a df c4 3b c0 f3 97 3d
       -0.05926762 -0.23392946 0.006008071 0.074195385

fc3.weight f4 [1, 64]
000000 d1 bf a7 be e8 6d 9b be 90 32 13 be dd 66 99 3e
       -0.32763532 -0.3035729 -0.14374757 0.2996129
000010 2e c2 a9 be d5 8d 84 be 56 ab 9c be 42 a8 9b be
       -0.3315596 -0.2588946 -0.3059947 -0.30401808
000020 43 a5 31 be fe 73 30 be 69 43 b1 bd 26 03 a0 3d
       -0.17348199 -0.17231748 -0.086554356 0.078131005
000030 4c 88 20 3f 50 9c ed 3e 78 95 30 be 5e d1 f3 3e
       0.6270797 0.4640832 -0.17244518 0.47620672
000040 19 6c d8 bd fe 8f 5b be 5f 87 b7 bd c2 f8 a8 3e
       -0.10567493 -0.21441647 -0.08961367 0.33002287
000050 9d c4 65 be b9 57 be be b9 f5 09 bf ed ee 50 be
       -0.22438283 -0.37176302 -0.5389057 -0.20403643
000060 7a 43 7a 3e 52 70 95 bd 9c 8a cf 3e fa 30 97 be
       0.24439803 -0.07296814 0.40535438 -0.29529554
000070 85 f4 b8 be 42 42 08 3f 06 ab 1f 3d 18 23 39 be
       -0.36124054 0.532261 0.03898146 -0.18079793
000080 2d b5 cd be 1d 6b de 3e ce eb d5 3c 52 09 5c 3e
       -0.4017729 0.43441096 0.026113417 0.2148793
000090 e2 fd f5 3e 08 14 65 3e 02 b7 d5 be 97 dc 6b 3e
       0.4804526 0.22370923 -0.41741186 0.23033367
0000a0 9d 27 b4 be 11 dc 8e be 0e 9d e2 3e 29 e5 66 3e
       -0.35186473 -0.27902272 0.44260448 0.22548355
0000b0 b2 de 62 bf bb f8 2e be b2 1a 19 be 0c a2 bd be
       -0.88621056 -0.1708707 -0.1495159 -0.37037694
0000c0 59 fe 79 3e 40 fb cc 3e 1e 3a ce 3e 12 59 87 be
       0.24413432 0.4003544 0.40278715 -0.26435143
0000d0 a4 7a c6 be 06 f3 a8 3e 2b 60 14 be 19 9f 65 be
       -0.38765442 0.32997912 -0.1448981 -0.22423972
0000e0 77 0a d3 be 02 f9 23 bf 24 74 8a be 4f 32 18 3e
       -0.41218922 -0.6405183 -0.27041733 0.14862941
0000f0 4f 5f 8c 3e ab cd 77 3e 15 75 96 3e 1c 21 22 be
       0.27416465 0.2419955 0.29386202 -0.15832943
