PPO-continuous/2333pc/best/AC.pth (torch, 103755 bytes, 8 tensors)

log_std f4 [1, 12]
000000 99 ec ad 42 d3 07 ae 42 32 22 ae 42 41 18 ae 42
       86.962105 87.01528 87.06679 87.04737
000010 b3 f0 ad 42 7f 0c ae 42 e6 ee ad 42 e6 ff ad 42
       86.970116 87.02441 86.9666 86.9998
000020 91 3c ae 42 b0 02 ae 42 a7 11 ae 42 28 cc ad 42
       87.11829 87.00525 87.03448 86.89874

share_net.0.weight f4 [64, 315]
000000 34 f6 03 3e da 66 b5 bd b9 98 26 bd e5 2d da bd
       0.12886888 -0.08857508 -0.04067299 -0.10653285
000010 aa dd 07 be 3a 3e 35 bd c5 d3 98 be 07 8d 1e be
       -0.13268152 -0.044248797 -0.29849067 -0.15483485
000020 77 d0 0f 3c d7 74 f6 3d 8f aa f0 3d 62 24 b5 3c
       0.008777729 0.12034004 0.117512815 0.022112075
000030 d6 f8 b2 be d0 9f 4a be 09 b7 20 3c 18 e2 28 3d
       -0.34955472 -0.19787526 0.009809264 0.041231245
000040 ac 2c 5e be 66 10 b1 3d b9 ea fb bd cb 7f a0 bd
       -0.21696728 0.08645706 -0.12300629 -0.078368746
000050 1d f7 f1 3e 6c c6 fa 3d 28 5d 04 3e c1 b3 d3 bd
       0.47258845 0.12244877 0.12926161 -0.1033702
000060 87 54 d2 bd 41 25 be bd bc bd 1d bd bb 0a d2 3d
       -0.102700286 -0.09284449 -0.038511023 0.10255953
000070 34 a9 77 be 76 09 89 be ce df d6 3d 6f c7 d7 3b
       -0.2418564 -0.2676503 0.10491906 0.0065850536
000080 fc 29 16 be a8 96 1d 3e f0 c3 c7 3e 33 37 41 3c
       -0.14664453 0.15389502 0.39016676 0.011792946
000090 bf 2b 3a bd c1 79 8a be 17 7b b9 3d 88 66 29 3e
       -0.045451876 -0.27046016 0.09056681 0.16543019
0000a0 d0 27 fa bd 81 6d 3d 3e 48 b7 10 be 5d 60 c1 3d
       -0.12214625 0.18498804 -0.14132416 0.09442208
0000b0 8e 29 32 be 09 62 07 3e 02 cc 43 be ef 35 af be
       -0.17398664 0.13220991 -0.19120792 -0.34220836
0000c0 b0 11 e7 bd c8 4f 90 bd cc 65 76 3c d6 b3 f3 bd
       -0.112826705 -0.07046467 0.015038919 -0.11899535
0000d0 97 74 e8 bd bd e2 c3 bd 11 91 84 ba f2 ae d2 3d
       -0.11350363 -0.09564731 -0.0010114034 0.102872744
0000e0 c9 f8 46 be c2 17 06 be 15 1e 1d be 2d bc 25 3e
       -0.19430842 -0.13095 -0.15343507 0.16185065
0000f0 96 ba f0 bc 97 23 64 bd fa 9b d7 bd 99 89 7a be
       -0.029385846 -0.055698004 -0.10527797 -0.24466552
000100 8f 1f b0 bd b1 71 9e 3c 58 5c 71 bd 5b 4f cd 3d
       -0.08599769 0.019341322 -0.058925956 0.100249015
000110 9f 15 71 bd d3 6b 3a bd fa 66 50 bd 03 d6 c9 bd
       -0.05885851 -0.045512985 -0.050879456 -0.098552726
000120 26 8f b1 bd bb 43 e0 bd 30 f5 1a be cc cf c0 3d
       -0.086698815 -0.109504186 -0.15132594 0.09414634
000130 23 ba bf 3d fd 52 84 be ec 9d 82 3d 1c e3 22 3c
       0.09361675 -0.25844565 0.063777775 0.009941842
000140 07 c8 47 3e f8 70 1a be e4 3e 07 be 33 13 45 be
       0.19509898 -0.15082157 -0.13207585 -0.19245605
000150 82 0a c8 bb 6f 40 00 3d 4e 0f f5 bd fc 91 b8 be
       -0.0061047683 0.03131145 -0.1196581 -0.36048877
000160 fe 35 20 3e 28 83 c7 3d 75 7e 02 bd 0a 60 83 be
       0.15645596 0.09741813 -0.03185888 -0.2565921
000170 a3 70 13 be 3f f6 a1 bc 4c 54 b8 be 52 a5 93 bd
       -0.14398436 -0.01977074 -0.36001813 -0.07209267
000180 7a b1 84 3d 70 8c 13 be 73 e8 98 3d 9b 23 73 3d
       0.064791635 -0.14409041 0.07466211 0.059360128
000190 c5 79 09 3e 11 d9 3c be 23 ae 70 be da 81 ad bc
       0.13425358 -0.1844218 -0.23503928 -0.021180082
0001a0 86 f4 36 be 41 1c 88 be 67 b3 93 bd 22 9c 94 be
       -0.17866716 -0.26584056 -0.07211953 -0.2902537
0001b0 b5 e7 9b bd b1 48 95 3d 45 58 08 3d b6 d5 32 bd
       -0.07612554 0.072892554 0.033287305 -0.043660842
0001c0 f9 3e 7e 3c 0b 83 1e be 57 61 f5 bc 4b 7d 13 3d
       0.015517944 -0.15479676 -0.029953642 0.03600816
0001d0 ae e2 ab be bf 4b 4a 3d 1e f2 39 3e d2 11 b8 bc
       -0.3357138 0.049388643 0.18158767 -0.022469435
0001e0 41 3c 15 be c2 b0 60 be 70 e6 44 be a7 16 10 3d
       -0.14573766 -0.21942428 -0.1922853 0.035177853
0001f0 ab 1b ba bd d6 04 2a bd 7c 54 c7 bd 25 cb a2 be
       -0.090873085 -0.04150852 -0.09732911 -0.31795612
000200 6c 58 83 be d4 8c 09 3d e3 d0 27 3d 52 a8 ce 3c
       -0.25653398 0.03358157 0.040970694 0.025226746
000210 f0 b2 fe 3c 35 46 38 bd 0d 3b 06 be 68 6c 1d bc
       0.031091183 -0.04498883 -0.13108464 -0.009608366
000220 98 9b 04 bd 2a d7 bd bd c5 b0 6f 3d 2d a7 1b be
       -0.03237495 -0.09269555 0.05851819 -0.15200491
000230 3e e2 f3 bd b2 de 03 be 95 36 ae bd 88 ab e2 3c
       -0.11908387 -0.1287792 -0.085065044 0.027669683
000240 4e 8c 89 3d c3 91 3c 3e fd f6 c1 3e 7d c1 19 be
       0.06716214 0.18414979 0.3788375 -0.15015216
000250 d4 43 8e be ca d0 b8 bd 68 38 7d bd 32 e2 98 be
       -0.27786124 -0.09024198 -0.06182137 -0.29860073
000260 db 85 9c be 18 87 f7 bc 50 69 7e be 83 ec 0f 3e
       -0.30570874 -0.030215785 -0.24844861 0.14055066
000270 74 53 3b be 19 fa 49 3e 00 48 c1 bd eb 8f 5b bd
       -0.18293554 0.19724311 -0.09437561 -0.053604048
000280 4e a6 45 bd 43 d2 19 3e 1c 29 ed 3d 2e 36 29 bd
       -0.048254304 0.15021615 0.115801066 -0.041311435
000290 3b 07 f1 bb d3 b1 b9 be b9 85 fb bd f2 b8 cb bd
       -0.0073555983 -0.36268482 -0.12281365 -0.09947385
0002a0 4d c0 86 3d 61 98 d1 bd 5b 1b bc 3d fb cd 8c be
       0.06579647 -0.10234142 0.09184905 -0.275009
0002b0 b8 7b e3 3b cf 72 a1 bd d1 c8 31 3e f2 9f fe bd
       0.0069422387 -0.07883226 0.17361762 -0.12432851
0002c0 71 d4 b1 be e5 d7 c1 3d 94 52 0e be 76 c2 7e bd
       -0.34732392 0.09465007 -0.13898689 -0.06219717
0002d0 1a cf 1f be 1d 52 3b 3e bb c7 1d be b9 ab c6 3d
       -0.15606347 0.18293042 -0.15408222 0.09700722
0002e0 47 c4 34 3e 79 d0 11 bd 29 60 d9 bd 0a 2c 93 bc
       0.17652999 -0.035599206 -0.10614044 -0.017965335
0002f0 27 0c 05 bd 23 b6 3d bd 14 cc a8 bd 55 19 33 3e
       -0.032482293 -0.046316277 -0.0824205 0.17490132
000300 aa 84 0b bd d1 df 69 3d 07 60 1f be 7c b9 8d bd
       -0.034062065 0.057098214 -0.15563975 -0.06920144
000310 22 06 52 bd 46 08 4c 3d 12 c0 1e be 5d 59 98 be
       -0.05127538 0.049812578 -0.15502957 -0.2975568
000320 29 78 31 bc bd 43 32 3e 94 56 92 3d 92 53 a1 3c
       -0.010831871 0.17408653 0.0714542 0.01969317
000330 d8 d7 11 bd 9b 96 36 bc e2 99 13 3d 7c ab 84 be
       -0.035606235 -0.011144306 0.036035426 -0.25912082
000340 3a f6 54 3e 46 79 9b bd 93 86 9d 3d 01 c9 36 3d
       0.20797053 -0.075914904 0.076916836 0.044625286
000350 69 54 70 bd 3c 49 a7 3d 30 11 c5 3c 4d 78 b8 3d
       -0.05867425 0.08168265 0.024056047 0.090073206
000360 e1 8e a9 3e ff 1a 74 3c e3 2c 5e be c4 c8 d3 bd
       0.3311682 0.0148990145 -0.2169681 -0.103410274
000370 bd 6f 82 3c d3 ce 3f be 12 8a 28 3c fa 19 0a bc
       0.015922422 -0.18731241 0.010286825 -0.008429045
000380 92 b3 80 3d f7 3c 82 3c ff c8 86 be f4 9e 65 bd
       0.0628425 0.01589821 -0.26325223 -0.056059793
000390 38 b6 c6 bd d2 f2 1a 3e 55 a4 29 bd 34 a1 d6 be
       -0.09702724 0.15131691 -0.041416485 -0.41919863
0003a0 8d 5f 16 3e 2c c2 2c 3e 35 6e 11 be 6d a5 65 be
       0.14684887 0.16870946 -0.14202197 -0.22426386
0003b0 af 2c e3 be 00 89 5a 3d 9c 80 e9 bd 45 90 d8 3d
       -0.44370028 0.05335331 -0.114014834 0.10574392
0003c0 10 65 9a bd 42 e6 2f 3d 8d 35 00 be 3e 60 74 be
       -0.075388074 0.0429442 -0.12520428 -0.23864838
0003d0 10 e1 96 be 7f 68 65 be 8e b4 e8 bd c2 36 01 be
       -0.29468584 -0.22403143 -0.11362563 -0.12618545
0003e0 a7 b4 83 bc b6 48 84 bd d4 e3 d4 3b 74 1e 1a be
       -0.016077353 -0.06459181 0.006496886 -0.1505068
0003f0 c1 a8 4d bd 99 4a 71 3c 0e e2 95 bd ca d7 69 be
       -0.050209764 0.014727258 -0.07318507 -0.22836223

share_net.0.bias f4 [64]
000000 15 4d c5 bc fa 00 2b 3e 76 b5 1d 3e 3e b7 fd 3c
       -0.024084607 0.16699591 0.15401253 0.030971166
000010 c8 f0 ba be 24 6e 13 bf 13 e4 dd 3e 4d b2 b1 bd
       -0.36511827 -0.57589936 0.4333807 -0.08676586
000020 1f 8f d1 3e f2 70 33 bf 26 7f f7 3e c9 89 b9 3e
       0.40929505 -0.70094216 0.48339194 0.36237934
000030 9b 43 ef 3e 27 ab cc 3d 6a 99 ce 3e 44 40 02 3e
       0.46731266 0.09993582 0.4035142 0.12719828
000040 48 2e 76 be cd d5 22 3c e0 8f cd be df 1a ed be
       -0.24041092 0.009938669 -0.4014883 -0.46309564
000050 9d 65 2e 3f 26 dd c6 be 7c 2f 6f 3d 08 dd 05 be
       0.681238 -0.38840598 0.058394894 -0.13072598
000060 18 22 c3 be 8c 97 ae bd 7c 9a 23 bf 40 01 2e 3f
       -0.3811195 -0.08524999 -0.639076 0.6797066
000070 a2 07 14 3f f7 81 3c 3f fa 74 89 3e 2d 8a ae 3e
       0.57824147 0.7363581 0.2684706 0.34089795
000080 0f 82 a5 bd bc e9 98 3e 48 f4 76 3e 01 ff 3a be
       -0.08081447 0.29865825 0.24116623 -0.18261339
000090 74 ed 96 bd 3f 35 2d 3e 43 47 a2 bd d1 99 90 be
       -0.07369509 0.16914843 -0.07923748 -0.28242353
0000a0 50 e5 49 bd 31 ef 40 3e ae 35 d8 3d e6 53 81 3e
       -0.049290955 0.18841244 0.105571136 0.25259322
0000b0 02 03 3b be 50 17 0b 3f 83 05 86 be 30 90 20 bd
       -0.18262866 0.5433245 -0.2617608 -0.039200008
0000c0 11 88 9c be 3a 75 3a bd be a0 b4 3e 4f d0 02 3f
       -0.3057256 -0.045521952 0.35278887 0.51099104
0000d0 dc e7 39 3d 36 ec b3 3d b5 07 2f 3e a3 30 13 3f
       0.045387134 0.08785288 0.17092784 0.5749609
0000e0 47 84 ea 3e 57 4d 6a be 47 34 80 bd a6 16 6e 3e
       0.45804045 -0.22881065 -0.06259971 0.23250827
0000f0 23 f5 95 be bb 23 bd 3e d0 03 ae 3e c8 99 8f 3d
       -0.29288587 0.36941323 0.33987284 0.07011753

share_net.2.weight f4 [64, 64]
000000 72 ce 1f 3e d1 ca 3e be 65 96 ff be 11 08 35 bf
       0.15606096 -0.18632056 -0.4991943 -0.70715433
000010 a3 0d c8 be af 34 7f bc 9a 86 7d 3e 43 ba ac 3e
       -0.39072904 -0.015576526 0.24758378 0.33735856
000020 34 ae 5d 3e 4e 72 e0 3e 7b fe a9 bd 5f 5e 4b 3e
       0.21648484 0.43837208 -0.083004914 0.19860218
000030 5f 45 3b bf 51 4c 05 3e 1f 06 36 be 7a 59 1b 3d
       -0.73152727 0.13017394 -0.17775773 0.03792713
000040 eb 7c 88 3c 5d 5f aa 3e 12 bb 0b be b5 e1 6e be
       0.016661128 0.3327588 -0.1364558 -0.23328288
000050 3f 32 b7 3e 8f ab 32 3e 31 12 d0 3d 55 45 0d be
       0.35780522 0.17448257 0.1015972 -0.1379598
000060 c9 93 68 3e 6a 0f 01 bf b4 df 79 be a7 19 dc 3d
       0.22712626 -0.50414145 -0.24401742 0.1074708
000070 d9 00 cb bc 99 15 90 be 29 b8 51 be d5 f0 a0 be
       -0.024780678 -0.28141478 -0.20480408 -0.3143374
000080 d9 5a 6b be 8c c3 20 3e 5e e1 9b 3e 2b 7f b6 be
       -0.22983874 0.15699595 0.3044538 -0.35643896
000090 5c c0 dd 3e 74 28 db 3d d1 a1 09 bf ba 52 4e bd
       0.4331082 0.10701075 -0.5376254 -0.050371863
0000a0 26 2e f5 bc ec 04 10 be 5a eb 69 bf 4c 9e 01 bf
       -0.029929232 -0.14064378 -0.91374743 -0.50632167
0000b0 60 68 f4 be e2 63 3e bd f9 45 1a 3e 6a d2 9c be
       -0.47735882 -0.046481974 0.15065755 -0.30629283
0000c0 d9 50 73 bd b1 e5 15 3e 56 2b 18 3d 41 dc 35 3f
       -0.059403274 0.14638402 0.037150703 0.71039206
0000d0 7f e1 a7 3c 73 5d fd be 01 41 82 3e 49 d7 c1 bc
       0.020493267 -0.4948536 0.2544022 -0.023662226
0000e0 0f 1c 53 be db b6 55 3e 81 6e a9 3c 1a 62 91 3c
       -0.20616172 0.20870535 0.020682575 0.017746974
0000f0 22 43 54 3d 55 91 80 bd 05 8f 13 3e a4 72 0a 3f
       0.051821835 -0.0627772 0.14410026 0.5408118
000100 67 a3 0d bf 5c 82 17 bf c9 08 b5 3d 4e ab 66 bd
       -0.5532746 -0.5918329 0.08839566 -0.056315713
000110 91 61 27 3c c3 33 b9 3d 66 d2 1a bd 98 d8 cb bb
       0.010216133 0.09043076 -0.037798308 -0.0062208883
000120 25 bc 81 bd 3e d8 74 bf ee 29 45 3e 96 1e 96 3e
       -0.06334714 -0.9564246 0.19254276 0.2932021
000130 8c 9c 34 3f 1d 03 7f bd c7 99 fd 3e f2 43 95 be
       0.7055137 -0.06225883 0.49531385 -0.291534
000140 29 7b d8 3e e0 b0 89 be 9c b0 9c be 83 cc bd 3e
       0.42281464 -0.26892757 -0.30603492 0.37070093
000150 78 36 21 be ce 01 8f 3d ca 10 a2 3e da 80 10 3e
       -0.15743434 0.06982766 0.31653434 0.14111653
000160 2d d2 61 be 4d b7 95 3e 3a 9c 81 bd e9 db 9d bd
       -0.22052832 0.2924141 -0.06328626 -0.0770796
000170 76 d6 4f 3e 12 06 e8 3e 61 f3 32 3f d1 98 6e 3e
       0.20296654 0.4531713 0.69902617 0.23300482
000180 ae 4e 99 3d 20 a1 39 3e 77 4e 03 be 60 85 1c 3e
       0.0748571 0.1812787 -0.128229 0.15285254
000190 d3 02 97 3e cc ab 99 3c b0 ac 80 3e e6 17 37 be
       0.29494342 0.018758677 0.2513175 -0.1788021
0001a0 9b 89 4f 3e fa 36 8b bc 07 99 e9 3e 8b 8f df 3e
       0.20267336 -0.016993988 0.45624563 0.43664202
0001b0 2d 5c b6 3e cf bb c7 3e 15 c3 65 bf 55 ac 8c be
       0.356172 0.39010474 -0.89750797 -0.2747523
0001c0 b2 27 08 bd c9 0b 22 3b ad 6b 32 3e 0b 96 08 3e
       -0.03324098 0.0024726263 0.17423888 0.13338487
0001d0 c4 6b b8 3e 25 22 73 3f 1f 8e be bc 56 2c bf bd
       0.3601972 0.94973975 -0.023261128 -0.09334628
0001e0 59 07 09 3f 86 b6 5d be b6 73 52 3e b1 2a a7 3e
       0.53526837 -0.21651658 0.20551953 0.32649758
0001f0 d5 b3 2d be 76 37 b7 3d 18 42 25 3e 90 09 dc 3d
       -0.16963132 0.08946125 0.16138494 0.107440114
000200 b9 9f 86 3d 41 7b a0 be 2b 38 62 be 78 89 d4 be
       0.065734334 -0.31344035 -0.22091739 -0.4151113
000210 2b 08 02 bf 0a 59 14 3e 33 58 83 3d 86 46 e8 3e
       -0.50793713 0.1448709 0.06413307 0.45366305
000220 fd df 6d 3d 87 b9 7e bd 4e 7b 1e be b2 f2 90 3d
       0.05807494 -0.06218865 -0.15476725 0.070775405
000230 c2 40 1c 3d 3b 44 4d 3f 3e 45 8c bf c7 70 0a 3f
       0.038147695 0.80182236 -1.0958631 0.54078335
000240 86 f4 cd be 8b 6f 55 3e 5c 73 c3 be 7b c1 d1 be
       -0.4022562 0.20843332 -0.3817395 -0.40967926
000250 44 89 ec 3e 76 66 3c be 16 ca 36 3f 51 29 da b9
       0.46198475 -0.18398461 0.7140211 -0.00041610983
000260 ad 78 c5 3d 77 79 c3 be 3d 57 26 3d 9d 1e 9c be
       0.09642158 -0.38178608 0.04061054 -0.30492106
000270 8c f3 07 be 19 46 47 3e b9 9a 01 bf 29 01 80 be
       -0.132765 0.19460334 -0.50626713 -0.25000885
000280 a3 44 a2 3e 26 74 82 be 55 a7 a4 3d c9 52 b6 bc
       0.3169299 -0.2547924 0.080397286 -0.022256272
000290 22 2b b9 3d ee 9e fc ba 54 e6 83 be 23 33 c9 bd
       0.0904143 -0.0019273439 -0.25761664 -0.09824207
0002a0 8a 06 02 3f 3e e8 58 3e 85 ea 87 be a8 f7 d6 be
       0.5079123 0.21182343 -0.26546112 -0.41985822
0002b0 95 a5 59 3e 64 e6 51 3d f5 cb 00 3e cc ff e4 3d
       0.21254571 0.05124511 0.12577803 0.11181602
0002c0 08 d9 84 3e b1 17 72 3e e9 c7 ea 3e 42 10 38 3e
       0.25946832 0.2364185 0.45855644 0.17974952
0002d0 ac 4f 41 be f8 2f d0 be 10 d6 59 3e a5 de 63 3e
       -0.18878049 -0.40661597 0.21273065 0.22252901
0002e0 c6 0a 21 bd 1c b3 d2 3c 65 89 53 be 02 ed 73 bd
       -0.039316915 0.025720172 -0.2065788 -0.0595522
0002f0 04 43 47 bd 61 3a ad 3e a1 86 d2 3e cf c9 02 3f
       -0.048647895 0.33833602 0.4111834 0.51089185
000300 16 9a c1 be 70 c7 90 bd d2 66 96 3e 3c f2 d4 be
       -0.3781287 -0.0706929 0.2937532 -0.4159106
000310 7b 15 fb be b0 42 95 3e 7c 38 6a 3d 47 a7 0d be
       -0.49039826 0.2915244 0.057182774 -0.13833342
000320 8f 39 5a 3d 9e 50 b9 be f0 74 9f be 44 99 ba be
       0.05327755 -0.3619432 -0.31143904 -0.36445057
000330 36 b7 3f be de 8f be 3d 0e 56 19 bf b2 58 2d be
       -0.18722233 0.09304784 -0.59896934 -0.16928366
000340 93 0f 3f be 8c e0 49 be ef 9f 19 be 2d 7e ee bd
       -0.18658285 -0.19714564 -0.15002416 -0.1164516
000350 a0 d8 5f 3b 09 2b 6c be 0e 60 06 3e be a7 8f be
       0.0034156218 -0.23063292 0.1312258 -0.28057665
000360 5f 3e 18 bf 28 c1 c5 be e4 8f 9b bd 76 f4 25 3f
       -0.5947017 -0.3862393 -0.07595804 0.6482614
000370 a8 7e 5a 3e c8 d4 ee 3d d3 d0 0c be 02 2a fc 3d
       0.21337378 0.116616786 -0.13751535 0.123127
000380 53 8c e3 3d 3f d5 f5 bd 6e 76 5f be ec 89 13 3d
       0.11110749 -0.12003564 -0.21822521 0.036020204
000390 12 f9 08 bd 96 93 02 3f f6 7d a1 be f1 05 f5 be
       -0.033440657 0.5100645 -0.31541413 -0.47856095
0003a0 cb 52 21 bf 64 e7 36 3f 13 59 0f bf 30 1e b4 3e
       -0.6301696 0.71446824 -0.5599529 0.3517928
0003b0 c9 57 0f 3d 40 21 d8 bc bf da e0 be 08 31 96 bd
       0.034995828 -0.026383042 -0.4391689 -0.07333571
0003c0 91 ca b1 be 43 61 af be 66 e6 98 3e fa 40 b4 3e
       -0.34724858 -0.34253892 0.2986328 0.35205823
0003d0 c7 d6 90 3d 0c 4c 15 3d f4 47 8b be 33 d4 a5 3c
       0.070722155 0.036449477 -0.27203333 0.020242786
0003e0 33 fb 3c 3e 62 5c 60 bf fe 72 f2 be 03 ae fc 3e
       0.184552 -0.87640965 -0.47353357 0.4935151
0003f0 85 58 d2 3b 5a ab 71 3d 93 cb 93 3e 7f 00 ca 3e
       0.0064192438 0.059001304 0.28866252 0.39453503

share_net.2.bias f4 [64]
000000 38 b4 c1 3d d3 91 14 3d d5 c1 ac 3d 57 e8 c5 bd
       0.09458202 0.03627188 0.08435408 -0.09663456
000010 e7 6a 64 bd 01 cd 82 bb de d3 58 be b6 97 18 3e
       -0.055766013 -0.0039917235 -0.21174571 0.14901623
000020 7c 10 e4 bc 44 a6 1f bd 53 76 e9 be 6c ec 29 3e
       -0.027839892 -0.038976923 -0.45598087 0.16594094
000030 17 d4 83 bd ae 1b 7a be 0b 5b 1b 3e bb f6 02 3e
       -0.06436937 -0.24424621 0.15171449 0.12789433
000040 46 be 30 be 02 66 c4 3d 4f 12 81 3e c6 64 d0 3e
       -0.17260084 0.09589769 0.2520928 0.40701884
000050 2c 29 45 be 96 38 8f 3d 51 74 7f be 47 34 75 bc
       -0.19253987 0.06993215 -0.24946715 -0.014966077
000060 ef c1 97 bd 5d a1 8c be 67 b6 ae 3d 05 ae 40 be
       -0.07410037 -0.2746686 0.08530884 -0.18816383
000070 a6 9d b0 be d6 ca 61 3e b6 4a ce bc cb e1 6a bd
       -0.34495276 0.22050032 -0.02518211 -0.05734424
000080 ba ae 90 3e 05 7a a0 bd 3a 53 8b be 16 b5 5d be
       0.28258306 -0.078357734 -0.27211934 -0.2165111
000090 ea ee 67 bc 37 89 17 be e8 0f b3 3e c5 fe ad bd
       -0.014156083 -0.14798437 0.34973073 -0.08495859
0000a0 46 1e ae 3e 4e d1 d8 3d f5 f8 30 bd 4c 68 1a 3e
       0.34007472 0.10586797 -0.043206174 0.15078849
0000b0 01 3a e6 3e b2 67 7b be 17 3f cd bd 1c 9b 39 3e
       0.44966128 -0.24551275 -0.10021799 0.18125576
0000c0 d2 ee 48 be 70 f0 3a 3d 60 c6 1b 3e 1c d4 07 3e
       -0.19622353 0.045639455 0.15212393 0.13264507
0000d0 b1 05 0b be b9 1b 9e bc 03 7a c5 bd 56 e9 7f 3e
       -0.1357639 -0.019300329 -0.096424125 0.24991354
0000e0 15 5f ab be 03 56 43 bd 5e be ee 3c 9b 4d 7c 3e
       -0.3347098 -0.04768945 0.029143509 0.24638979
0000f0 13 56 f5 3e cd 30 54 3d 8a 06 ab bd 62 7d 65 3e
       0.47917232 0.051804353 -0.083508566 0.22411111

actor_mean_layer.weight f4 [12, 64]
000000 12 f0 27 be d8 ce 2f 3e 7e 42 59 3e 53 2a b4 3d
       -0.16400173 0.17168748 0.21216771 0.08797135
000010 b3 66 a0 bb 6c e5 4c 3e 4b d8 cc bd 82 68 3e be
       -0.004895055 0.20009392 -0.10002192 -0.18594554
000020 ec 8a d5 bd d4 c7 51 3d b9 e1 e1 3d 20 c6 18 be
       -0.10426888 0.05121596 0.11029381 -0.14919329
000030 de 04 9e 3d 1e 45 37 be b1 95 67 bd 69 f7 8c be
       0.07715772 -0.1789746 -0.05653924 -0.2753251
000040 f5 b4 98 3d eb 01 86 3d ed 05 1c bb 37 19 9d 3d
       0.0745639 0.065433346 -0.0023807243 0.07670825
000050 61 78 42 be 38 2a 71 be 11 06 02 bd da 3b a6 3e
       -0.18991233 -0.23551261 -0.031744067 0.32467538
000060 29 54 80 3e 8a fe 90 bd bf 11 15 be c3 3b 8e bd
       0.2506421 -0.070797995 -0.14557551 -0.069449924
000070 64 df 83 3d 88 75 96 bd e6 1b dd 3d 28 33 cb 3d
       0.06439093 -0.07346636 0.10796337 0.09921867
000080 a5 73 e2 3d 9d b5 83 3e 93 c2 5e be 59 c9 fa 3c
       0.11057214 0.25724497 -0.21753912 0.030613588
000090 b4 13 60 bd 18 85 84 3c 17 2b 82 3e c0 7f 62 bd
       -0.05470629 0.016176745 0.254235 -0.055297613
0000a0 52 b0 d8 3d e4 34 3c 3e 5b 07 ea 3d 13 7e 26 be
       0.105805054 0.18379551 0.11427184 -0.16259031
0000b0 9d 74 47 3e 5a b8 a4 3d c1 fb e5 3d 78 75 6a 3e
       0.19478078 0.08042975 0.11229659 0.22896373
0000c0 71 02 56 3c c8 ca 25 3e a3 5d 39 3e 41 cc 3c bd
       0.0130621055 0.16190636 0.18102126 -0.04609323
0000d0 b5 60 0f 3e 55 d1 3f 3e 96 d2 cb bd 3d 58 10 be
       0.14001735 0.18732198 -0.099522755 -0.1409616
0000e0 f2 8d 60 3d 3b b3 95 3d 84 3b fc bc db 9a fc bd
       0.05482287 0.07309576 -0.030790098 -0.12334224
0000f0 29 68 c3 3d 49 bf 0b 3e 91 94 20 3e d1 86 39 3e
       0.09541351 0.13647188 0.15681674 0.18117835
000100 94 e3 f2 3c d4 7a 6c bd e3 68 04 be 46 4a 7f bc
       0.029649533 -0.057734326 -0.12930636 -0.015581673
000110 02 9f 67 be 7e c4 34 be 39 cb bd 3b 86 85 81 3e
       -0.2261925 -0.17653081 0.0057920483 0.25297183
000120 fb 0d 71 3c 68 9a 69 3b 4d c2 84 bd 06 d5 2a 3e
       0.014712806 0.0035645012 -0.064823724 0.16682824
000130 80 ac a4 bd da ad 56 bc 29 1c 33 bb 39 c6 c6 3d
       -0.08040714 -0.013102973 -0.0027330017 0.09705777
000140 6b 3a d5 3d 89 3f 1c be 1f 98 a5 bd 1f 1c 7f be
       0.10411533 -0.15258612 -0.080856554 -0.24913071
000150 e5 3d 80 3e fe 10 27 3e b9 0c 34 3c 39 64 88 be
       0.25047222 0.16315076 0.010989361 -0.26638964
000160 b3 fc 60 bd ff 75 d0 bd 95 f1 70 3e 28 a6 ed 3d
       -0.054928493 -0.10178756 0.23529656 0.116039574
000170 09 e7 29 3c 30 20 08 3e 92 9a ff bc 2b ff 84 bd
       0.0103700245 0.13293529 -0.031201635 -0.06493982
000180 57 2c 64 be bf c1 50 be 20 c8 5c 3e 4b 03 d8 bb
       -0.2228254 -0.20386408 0.21560717 -0.0065921894
000190 99 38 2e bd 9e e6 cf bd 06 a3 52 be 7c ab bc 3d
       -0.042534444 -0.101514086 -0.20570001 0.092123955
0001a0 ed cc 07 bd a2 68 71 bd 3b bd e9 bd 09 7e 62 3d
       -0.033154417 -0.058937676 -0.11413046 0.055295978
0001b0 53 99 66 bd f5 33 c3 3d a5 96 ff bc 60 37 17 be
       -0.056298565 0.095313944 -0.031199763 -0.14767218
0001c0 c0 93 20 bd cb 0f 2d bb ec f6 d1 bc b3 6d 33 be
       -0.039203405 -0.0026407118 -0.025630437 -0.17522316
0001d0 c2 98 27 be 65 cd e8 bd e9 ad 16 3e 90 11 8a 3d
       -0.16366866 -0.11367301 0.14714779 0.06741631
0001e0 3c 4c 1f be 4e 30 6c be b9 ac 80 3e ac 5b 06 3e
       -0.15556425 -0.23065302 0.25131777 0.13120908
0001f0 63 17 d1 bd e5 10 31 bd 5f 1c 2b be de c1 d3 bd
       -0.10209539 -0.043229003 -0.16710041 -0.103397116
000200 6e 91 4e 3e 22 52 85 bd c6 db bc bd 2c 07 b1 bc
       0.20172665 -0.06509806 -0.09221606 -0.021609865
000210 eb 6b c8 bd f5 92 5c be 6e 8e e4 bd b3 ad 61 3e
       -0.09786209 -0.21540435 -0.11159979 0.22038917
000220 43 b7 ca 3c c2 fc 07 bd fa f5 6d bd 25 fb 7d 3e
       0.02474559 -0.033200033 -0.05809591 0.24802835
000230 42 65 cb 3c 51 90 a8 bd d1 3e 99 bb 37 fc 5e 3e
       0.024828557 -0.08230651 -0.0046766778 0.217759
000240 83 74 26 3c 42 e6 03 be 8a f7 93 bd c7 40 1f be
       0.0101596145 -0.12880805 -0.07224949 -0.15552054
000250 58 2d 48 3e ea 76 b3 3d 0a 27 95 3d 7b b7 da bd
       0.19548547 0.087629154 0.07282837 -0.10679527
000260 45 95 20 be 4a d5 df 3b 1a 47 5d 3e 4e b0 29 3e
       -0.15681942 0.006830846 0.21609154 0.16571161
000270 1e dc a2 3d 86 fb e9 bd 20 1a 7b be b0 a2 a8 bd
       0.0795214 -0.114249274 -0.24521685 -0.08234155
000280 6c ab 69 be 35 0b 3f be 38 4f cf 3d 3f 8d 8e 3d
       -0.22819299 -0.18656619 0.10122532 0.06960534
000290 6b bc 54 bd f6 40 1b 3d 13 64 42 be 56 99 e6 3d
       -0.051937502 0.03790375 -0.18983488 0.11259715
0002a0 48 69 11 be c0 ed dc bd d8 40 0f be 0a 46 5a 3e
       -0.14200318 -0.10787535 -0.1398958 0.2131578
0002b0 24 24 79 be 26 41 99 bd 36 c2 6a be c0 cf 2d be
       -0.24330193 -0.07483129 -0.22925648 -0.16973782
0002c0 a6 65 88 bd d5 ed 0f be a2 6d 9d bc 06 24 b4 bd
       -0.06660013 -0.1405557 -0.019217316 -0.087959334
0002d0 13 86 fa bd 2b 6a 4a be 3e 07 4c 3c 48 29 18 3e
       -0.12232604 -0.19767062 0.012452899 0.14859498
0002e0 8a 62 91 bd 50 20 3f be e3 ae 17 3c 39 6d 28 3e
       -0.07098873 -0.1866467 0.009258005 0.16447915
0002f0 ed fd 53 be 09 35 ae bd 8d 9a 30 be a5 bd ae bd
       -0.20702334 -0.085062094 -0.17246456 -0.085322656
000300 15 f2 2b be ba 91 42 3e fe c5 c5 3d 13 bc 79 3e
       -0.16791566 0.19000903 0.09656905 0.24388151
000310 37 06 99 bc e4 f2 53 bd 42 36 37 3e 07 86 8e bd
       -0.018679721 -0.05174531 0.17891791 -0.069591574
000320 f5 f8 9e 3d fd ec 86 be 0e c6 e6 bd 03 30 f8 bd
       0.077623285 -0.26352683 -0.11268245 -0.121185325
000330 4e e8 80 be b4 e3 68 be e7 6f ba 3e 45 83 f8 3c
       -0.25177234 -0.22743112 0.364135 0.030336032
000340 35 b9 c4 3c bc 36 03 be 45 46 4e 3e 1c 15 ff 3d
       0.024014095 -0.12813848 0.20143993 0.12455198
000350 9a 52 d2 bd 20 f4 af bc 79 e1 6c 3e 56 32 ea 3c
       -0.10269661 -0.021478713 0.23132886 0.028588455
000360 c0 8a 85 3d 69 1b e4 3d a1 cf 3d be ae 58 a4 bd
       0.06520605 0.111380406 -0.18536235 -0.08024727
000370 6e ff 22 3e 6c 2d 82 be 13 25 67 3d 6b b0 44 bd
       0.15917751 -0.2542528 0.05643184 -0.048019808
000380 5c 90 db bc 64 cf 1d bd bd 38 4f 3d 43 29 aa 3d
       -0.026802234 -0.03852786 0.05059122 0.08308651
000390 c9 4a 32 3e 27 88 42 3e ed b0 32 3e 5d 9e ad 3e
       0.17411341 0.1899725 0.17450304 0.33909884
0003a0 2d 3e 4a 3e f6 37 7b bc e1 e4 54 bd 0d 91 81 bd
       0.1975028 -0.015333166 -0.05197609 -0.06326494
0003b0 ea 46 41 3e 71 6b a3 be 01 30 e2 3d 09 66 0f 3e
       0.18874708 -0.3191791 0.11044312 0.14003767
0003c0 7e ae 1b be 5f 36 31 3d 90 ab 9f 3d 3f 84 1f 3d
       -0.15203282 0.043264743 0.07796395 0.03894448
0003d0 4e fc 64 3d e1 40 1e bd f7 c1 07 bd 17 2d 16 3e
       0.05590468 -0.038636092 -0.033143964 0.14665638
0003e0 a6 b5 23 3e 74 21 e8 3d b3 b9 95 ba c0 10 19 bd
       0.15987262 0.11334506 -0.001142314 -0.03736949
0003f0 d4 bd 82 3d 5c f2 78 3d 2c a7 a4 3d bf d7 84 3e
       0.06383863 0.060778007 0.08039698 0.2594585

actor_mean_layer.bias f4 [12]
000000 a7 dd cf 3d 85 f4 6d be 09 35 88 bc 30 91 16 bd
       0.10149699 -0.23237808 -0.016626852 -0.036759555
000010 a5 cb 7e bc 9e 92 bc bd f7 b1 c9 bd 62 6a a3 3d
       -0.015551482 -0.092076525 -0.09848397 0.07979275
000020 0f 62 72 3e 63 ad 92 bc f2 aa 3a 3e 29 af 47 be
       0.23670219 -0.017904943 0.18229273 -0.19500412

critic_layer.weight f4 [1, 64]
000000 ee d9 9c bd 04 ca 04 be 02 6a 5a bd c3 17 a2 bd
       -0.07658754 -0.12967688 -0.053323753 -0.079146884
000010 3a 16 7b bd ba 34 93 bd 9b 9b 24 3e 54 c7 ba bc
       -0.061300494 -0.07187791 0.16074984 -0.022800125
000020 64 20 8e bc 8b 25 37 3e 39 60 7e 3c 58 9c 1b 3b
       -0.01734943 0.17885415 0.015525871 0.0023744311
000030 7c 7a 91 3e 2b 67 5b 3d 8f 1d 3b be 3e 2b 25 3c
       0.2841376 0.053565186 -0.18272994 0.0100811105
000040 55 ea 3c bc d8 73 93 be 72 77 59 be be 66 56 be
       -0.0115304785 -0.2879932 -0.21236971 -0.2093763
000050 7c 81 90 3e 51 bc b3 bc d1 d5 1d bd 6d 62 4e be
       0.2822379 -0.021940382 -0.03853399 -0.20154734
000060 a3 0a e5 bc 1b ae 7f 3e b3 cf 27 be cb 6c 15 be
       -0.027959174 0.2496876 -0.16387825 -0.14592282
000070 4d 4a 6f bd c5 bd 86 3d 31 8b ba 3b 2f 02 fc bd
       -0.058420468 0.065791644 0.0056928624 -0.12305104
000080 14 ae 7c bd ec 8d 48 3e 81 de c9 3d b7 bb b0 3b
       -0.06168945 0.19585389 0.098568924 0.005393471
000090 9d 8f 66 3d e4 8c 93 3d f9 cf e9 3c c9 6b 36 be
       0.056289304 0.07204607 0.028541552 -0.17814554
0000a0 55 44 25 3e 42 03 82 3e 86 6f 26 3b f6 8a 31 3b
       0.16139348 0.2539311 0.0025396063 0.0027090884
0000b0 53 d5 ff 3d ed be 2a be 80 37 d2 bd 90 0b 08 be
       0.1249186 -0.16674395 -0.10264492 -0.1328566
0000c0 44 88 bd 3c 1c db 21 be e7 07 7e bd 6a c9 a1 bd
       0.023136266 -0.1580624 -0.062019255 -0.07899745
0000d0 9c cd 99 bd b3 ac 6d 3a 8c 93 84 3d d5 42 c8 3c
       -0.0750992 0.00090665667 0.06473455 0.02444593
0000e0 e9 ab a5 3d 8a 8b c0 bc bb eb 86 3d e1 b7 b8 3c
       0.0808943 -0.023504037 0.06587931 0.022548618
0000f0 04 6c 25 3e 71 a6 e1 bd 33 fa 3a bd d8 5f 13 3e
       0.16154486 -0.11018074 -0.045648765 0.1439203
